Playing Card Classifier Model/saved_model/model_float16.tflite (tflite, 774200 bytes, 8 tensors)

model/tf.math.add/Add/y f2 [6]
0	0x2ff3	0.1242
1	0xab42	-0.0567
2	0x29d7	0.04562
3	0xb4ee	-0.308
4	0x3077	0.1395
5	0xa369	-0.01447

model/tf.math.add_1/Add/y f2 [16]
0	0x2fee	0.1239
1	0xb1c9	-0.1808
2	0x2a37	0.04855
3	0x260b	0.0236
4	0x99b9	-0.002794
5	0x3027	0.1298
6	0x2e3b	0.09735
7	0xadf4	-0.093
8	0x30b2	0.1467
9	0xa4d8	-0.01892
10	0x30e7	0.1532
11	0xabdb	-0.06137
12	0xa0df	-0.009514
13	0x2ce2	0.0763
14	0xac9f	-0.0722
15	0x2d90	0.0869

model/tf.nn.convolution/convolution f2 [6, 5, 5, 3]
0	0xaa06	-0.04706
1	0xafbe	-0.121
2	0xad01	-0.0782
3	0xad15	-0.0794
4	0xb0f2	-0.1545
5	0xb065	-0.1373
6	0x23d6	0.015305
7	0xb022	-0.1292
8	0xb0dd	-0.152
9	0xa43c	-0.01654
10	0xa893	-0.03574
11	0xb045	-0.1334
12	0xb13b	-0.1635
13	0xa901	-0.0391
14	0xa831	-0.03275
15	0xa382	-0.01466
16	0x27a0	0.02979
17	0x291c	0.03992
18	0x2b47	0.05685
19	0xa4c5	-0.01863
20	0xae8c	-0.1023
21	0x9f4c	-0.007126
22	0x2d5c	0.08374
23	0x2cae	0.0731
24	0xac28	-0.06494
25	0x2a21	0.04788
26	0xaf81	-0.11725
27	0x1cf9	0.004856
28	0xb0c6	-0.1492
29	0xb002	-0.1252
30	0xa872	-0.03473
31	0x2dab	0.08856
32	0x2f28	0.1118
33	0xa817	-0.03195
34	0x2885	0.0353
35	0xad48	-0.0825
36	0xac0d	-0.0633
37	0x2b77	0.05832
38	0xa49e	-0.01804
39	0x2a5d	0.0497
40	0x1ce7	0.004787
41	0x2d9e	0.08777
42	0xac67	-0.0688
43	0xac3d	-0.0662
44	0x295d	0.0419
45	0x31b2	0.178
46	0x300d	0.1266
47	0x3269	0.2003
48	0x20f8	0.009705
49	0x302a	0.1301
50	0x2f2c	0.11206
51	0xa95d	-0.0419
52	0xac60	-0.06836
53	0xa0ab	-0.00912
54	0xac82	-0.07043
55	0x29f9	0.04666
56	0xadf6	-0.09314
57	0x2c3a	0.06604
58	0xa975	-0.04263
59	0x301c	0.1284
60	0x2e07	0.0942
61	0x9e69	-0.00626
62	0x2b07	0.0549
63	0x304f	0.1346
64	0x304a	0.134
65	0x1dbf	0.00561
66	0x284a	0.0335
67	0x2efa	0.109
68	0x3018	0.1279
69	0xac12	-0.0636
70	0xa27d	-0.01267
71	0x1f1c	0.006943
72	0x9fcf	-0.007626
73	0xae0c	-0.0945
74	0x2f70	0.1162
75	0xac2f	-0.06537
76	0x2a1f	0.04782
77	0xaf58	-0.11475
78	0xab28	-0.0559
79	0xa95e	-0.04193
80	0x2955	0.04166
81	0x2e88	0.10205
82	0xadbf	-0.0898
83	0xa4c7	-0.01866
84	0x1a07	0.002943
85	0xa731	-0.02809
86	0xad40	-0.08203
87	0x0e4b	0.000384
88	0xa935	-0.04068
89	0xab3e	-0.05658
90	0xa210	-0.01184
91	0xaaf3	-0.0543
92	0x2d8a	0.08655
93	0xaf4f	-0.1142
94	0xa42a	-0.01627
95	0xae45	-0.09796
96	0xa4a9	-0.0182
97	0x2d0f	0.07904
98	0x2cca	0.0748
99	0xabf3	-0.0621
100	0x2c75	0.06964
101	0x24ec	0.01923
102	0xaa3d	-0.04874
103	0xae8f	-0.1025
104	0xa633	-0.02422
105	0xadb8	-0.08936
106	0xadd9	-0.0914
107	0x1c51	0.004215
108	0xa702	-0.02737
109	0xaaa9	-0.05203
110	0xaa12	-0.04742
111	0x2910	0.03955
112	0x2a11	0.0474
113	0xa82a	-0.03253
114	0x9a50	-0.003082
115	0x2a78	0.05054
116	0x231c	0.013885
117	0xac41	-0.06647
118	0x2caf	0.0732
119	0xad23	-0.08026
120	0x9b08	-0.003433
121	0xa586	-0.02158
122	0xa143	-0.01028
123	0xade1	-0.09186
124	0x25ea	0.0231
125	0xa97c	-0.04285
126	0xac14	-0.0637
127	0x286e	0.0346
128	0x98b4	-0.002296
129	0x2e75	0.1009
130	0xa555	-0.02083
131	0xad65	-0.0843
132	0x2e25	0.096
133	0xaf1b	-0.111
134	0x2c4e	0.06726
135	0x2890	0.03564
136	0xaf15	-0.11066
137	0x280d	0.03165
138	0x2a4a	0.04913
139	0x2018	0.007996
140	0xac5e	-0.06824
141	0xa9aa	-0.04425
142	0xae73	-0.10077
143	0x2d97	0.08734
144	0xabfb	-0.06235
145	0x1c95	0.004475
146	0x8070	-6.7e-06
147	0xa9b2	-0.0445
148	0xad6c	-0.0847
149	0x27b9	0.03017
150	0x26e0	0.02686
151	0xa84b	-0.03354
152	0xaddb	-0.0915
153	0x262c	0.02411
154	0x2da1	0.08795
155	0xaee1	-0.1075
156	0x2c62	0.0685
157	0xa4d1	-0.01881
158	0xafbb	-0.1208
159	0xaea2	-0.10364
160	0x2c1d	0.0643
161	0xb143	-0.1644
162	0x2244	0.01224
163	0x2b5c	0.0575
164	0xa6ec	-0.02704
165	0x3052	0.135
166	0x2dcb	0.0905
167	0xad9d	-0.0877
168	0x26ce	0.02658
169	0x2fba	0.1207
170	0xabe1	-0.06155
171	0xad7e	-0.0858
172	0xaeb6	-0.10486
173	0x2a84	0.0509
174	0xaf3f	-0.1132
175	0x2046	0.00835
176	0xb0dd	-0.152
177	0x2cdc	0.0759
178	0x261a	0.02383
179	0xa9f2	-0.04645
180	0x30bb	0.1478
181	0x2e0f	0.09467
182	0x305a	0.136
183	0xad0f	-0.07904
184	0x285b	0.03403
185	0xa99b	-0.0438
186	0x2f2b	0.112
187	0x2d58	0.0835
188	0x2d56	0.0834
189	0x23f5	0.01554
190	0xaa40	-0.04883
191	0x22f8	0.01361
192	0x280c	0.03162
193	0x23e5	0.01542
194	0xb11c	-0.1597
195	0x30a7	0.1454
196	0x2f4e	0.11414
197	0x2dee	0.09265
198	0x2b71	0.05814
199	0x2907	0.03928
200	0xae70	-0.1006
201	0x2a51	0.04935
202	0x2c14	0.0637
203	0x29b2	0.0445
204	0xaab9	-0.05252
205	0xa521	-0.02003
206	0xb140	-0.1641
207	0xb02b	-0.1302
208	0xa7c8	-0.0304
209	0xb099	-0.1437
210	0x2eb8	0.105
211	0x21da	0.01143
212	0x1f47	0.007107
213	0xa9fe	-0.0468
214	0x307d	0.1403
215	0xac97	-0.0717
216	0x2f74	0.11646
217	0xacb6	-0.0736
218	0xac92	-0.0714
219	0xadd3	-0.091
220	0x993a	-0.002552
221	0xad34	-0.0813
222	0x2339	0.01411
223	0x2a98	0.0515
224	0xb1b1	-0.1779
225	0x34c2	0.2974
226	0x3435	0.263
227	0x365c	0.3975
228	0x3446	0.267
229	0x35a8	0.3535
230	0x36ec	0.4326
231	0x34aa	0.2915
232	0x3552	0.3325
233	0x3610	0.379
234	0x34b1	0.2932
235	0x337b	0.2338
236	0x36b9	0.4202
237	0x3529	0.3225
238	0x30a4	0.145
239	0x3432	0.2622
240	0x3570	0.3398
241	0x3291	0.2052
242	0x3500	0.3125
243	0x33d0	0.2441
244	0x348d	0.2844
245	0x35f4	0.372
246	0x328c	0.2046
247	0x3155	0.1666
248	0x35bc	0.3584
249	0x323d	0.195
250	0x329b	0.2064
251	0x345c	0.2725
252	0x326a	0.2004
253	0x30f3	0.1547
254	0x34d8	0.3027
255	0x365a	0.397

model/tf.nn.convolution_1/convolution f2 [16, 4, 4, 6]
0	0xa9ee	-0.04633
1	0x29c8	0.04517
2	0x2e59	0.0992
3	0x301f	0.1288
4	0x34b0	0.293
5	0x2aca	0.05304
6	0xa7de	-0.03073
7	0x9172	-0.0006647
8	0x2f93	0.11835
9	0x29d5	0.04556
10	0x3593	0.3484
11	0x327d	0.2028
12	0x2bcb	0.06088
13	0xa5ee	-0.02316
14	0x2fbb	0.1208
15	0xacaf	-0.0732
16	0x3339	0.2257
17	0x26cf	0.0266
18	0xaadb	-0.05356
19	0xa4e6	-0.01913
20	0x2ca0	0.07227
21	0x2ee9	0.108
22	0x2ed5	0.10675
23	0xaab3	-0.05234
24	0xa959	-0.04178
25	0xae32	-0.0968
26	0x2a07	0.0471
27	0xae2f	-0.0966
28	0x35a9	0.3538
29	0x3087	0.1415
30	0xaa4e	-0.04926
31	0x2d06	0.0785
32	0x2cb0	0.07324
33	0xad4b	-0.0827
34	0x315d	0.1676
35	0xa7cd	-0.03047
36	0xad7a	-0.0856
37	0xa9a6	-0.04413
38	0x26c6	0.02646
39	0xb0ab	-0.1459
40	0x9a61	-0.003115
41	0xa28f	-0.01281
42	0x29d7	0.04562
43	0x9471	-0.001084
44	0xa5d9	-0.02284
45	0xaba5	-0.05972
46	0x267f	0.02538
47	0xae67	-0.10004
48	0x315d	0.1676
49	0xad91	-0.087
50	0xa559	-0.02089
51	0xac0d	-0.0633
52	0x33ab	0.2396
53	0x2b7b	0.05844
54	0x3087	0.1415
55	0xaa66	-0.05
56	0x2d5d	0.0838
57	0xacbe	-0.0741
58	0x3044	0.1333
59	0x2ae9	0.054
60	0x2f8c	0.1179
61	0xa664	-0.02496
62	0x2e84	0.1018
63	0xac0b	-0.0632
64	0x2a50	0.04932
65	0x279a	0.0297
66	0x2e0a	0.09436
67	0xa445	-0.01668
68	0xae6c	-0.10034
69	0xac1d	-0.0643
70	0xadd5	-0.0911
71	0xaacf	-0.0532
72	0x333c	0.2261
73	0x87b1	-0.00011736
74	0x30ee	0.154
75	0x2397	0.014824
76	0x2c29	0.065
77	0x29bb	0.04477
78	0x317e	0.1716
79	0x2e0a	0.09436
80	0x2eda	0.10706
81	0x2901	0.0391
82	0x3184	0.1724
83	0x2c36	0.0658
84	0x30c9	0.1495
85	0xaaf9	-0.05447
86	0x16e8	0.001686
87	0x30c3	0.1488
88	0x27f1	0.03102
89	0x30fb	0.1556
90	0x2f48	0.1138
91	0xae5c	-0.09937
92	0xab82	-0.05865
93	0x3103	0.1566
94	0xa8f6	-0.03876
95	0x2ef4	0.10864
96	0xacae	-0.0731
97	0xa9f5	-0.04654
98	0xb078	-0.1396
99	0xab6a	-0.05792
100	0xb315	-0.2213
101	0x9829	-0.002031
102	0xaad9	-0.0535
103	0xac8a	-0.0709
104	0xb236	-0.1941
105	0x2e66	0.1
106	0xb421	-0.258
107	0xad82	-0.08606
108	0xa347	-0.01421
109	0x2b8e	0.05902
110	0xb1d7	-0.1825
111	0x24e4	0.0191
112	0xb2e4	-0.2153
113	0xaf1d	-0.11115
114	0xadb8	-0.08936
115	0xadc6	-0.0902
116	0xb240	-0.1953
117	0x2d90	0.0869
118	0xb319	-0.2218
119	0x204e	0.00841
120	0xb2dc	-0.2144
121	0x194d	0.002588
122	0xb0c1	-0.1486
123	0x2ceb	0.07684
124	0xb000	-0.125
125	0x9d7d	-0.00536
126	0xa94b	-0.04135
127	0x2c6b	0.06903
128	0xb2ee	-0.2166
129	0x2d9e	0.08777
130	0xaefc	-0.10913
131	0xae5f	-0.09955
132	0xb02a	-0.1301
133	0x2dd2	0.09094
134	0xb3a6	-0.239
135	0x2920	0.04004
136	0xb37f	-0.2343
137	0x297f	0.04294
138	0xaf19	-0.1109
139	0xa47f	-0.01756
140	0xb334	-0.2251
141	0x2def	0.0927
142	0xaf5e	-0.1151
143	0xad9d	-0.0877
144	0xb24e	-0.197
145	0x28a2	0.0362
146	0xb32a	-0.2239
147	0xaa60	-0.0498
148	0xb021	-0.129
149	0x219e	0.01097
150	0xb2fb	-0.2181
151	0xae67	-0.10004
152	0xad1a	-0.0797
153	0xab93	-0.05917
154	0xafc0	-0.1211
155	0xade1	-0.09186
156	0xb40c	-0.253
157	0x2e48	0.09814
158	0xae58	-0.0991
159	0x2c4f	0.0673
160	0xa577	-0.02135
161	0x2c10	0.0635
162	0xb3af	-0.2401
163	0x2a69	0.05008
164	0xb297	-0.2059
165	0xa7d9	-0.03065
166	0xade5	-0.0921
167	0xa93f	-0.041
168	0xb0e0	-0.1523
169	0xa854	-0.0338
170	0xae78	-0.1011
171	0xa70d	-0.02754
172	0xaa2c	-0.04822
173	0xaff6	-0.1244
174	0xad1c	-0.07983
175	0x2ab7	0.05246
176	0xb198	-0.1748
177	0xa369	-0.01447
178	0xb29e	-0.2068
179	0xa412	-0.0159
180	0xb2a7	-0.2079
181	0xa9f1	-0.04642
182	0xb2cb	-0.2123
183	0xab52	-0.0572
184	0xac2d	-0.06525
185	0xafe8	-0.12354
186	0xa772	-0.02908
187	0xacfe	-0.078
188	0xb1be	-0.1794
189	0xa78b	-0.02946
190	0xad60	-0.084
191	0x9d38	-0.005096
192	0x3041	0.1329
193	0xaa24	-0.04797
194	0x2d0b	0.0788
195	0xb2bc	-0.2104
196	0x3182	0.1721
197	0xaf19	-0.1109
198	0x2ec8	0.10596
199	0x2c90	0.0713
200	0x2c4a	0.067
201	0xad07	-0.07855
202	0x2ace	0.05316
203	0x1d2c	0.00505
204	0x9e68	-0.006256
205	0xa69c	-0.02582
206	0xad6c	-0.0847
207	0x2ec5	0.1058
208	0x2ccb	0.0749
209	0x2a14	0.0475
210	0x15fc	0.001461
211	0xa076	-0.00871
212	0xacf7	-0.0776
213	0x3304	0.2192
214	0xaf0e	-0.1102
215	0x2c7c	0.07007
216	0x314d	0.1656
217	0x2d3e	0.0819
218	0x2e06	0.0941
219	0xb2a2	-0.2073
220	0x355a	0.3345
221	0x23e5	0.01542
222	0x242b	0.01628
223	0xa609	-0.02357
224	0xacbf	-0.07416
225	0x2575	0.02132
226	0xa2c6	-0.01323
227	0xb196	-0.1746
228	0x2df0	0.0928
229	0xa549	-0.02065
230	0x2c42	0.0665
231	0x2ccd	0.075
232	0x3067	0.1376
233	0xab8d	-0.059
234	0x25bc	0.0224
235	0x2d24	0.0803
236	0xac29	-0.065
237	0x2ff6	0.1244
238	0x2c30	0.0654
239	0xa2c3	-0.01321
240	0x2f74	0.11646
241	0x2103	0.00979
242	0x31fe	0.1873
243	0xb426	-0.2593
244	0x33a2	0.2385
245	0x2da3	0.0881
246	0x30d9	0.1515
247	0x2b58	0.05737
248	0xaf82	-0.1173
249	0xb0ca	-0.1497
250	0xa8a7	-0.03635
251	0xb1fd	-0.1871
252	0xaa26	-0.04803
253	0x2ce0	0.0762
254	0xa731	-0.02809
255	0x9c0c	-0.003952

model/18/AddV2/y f2 [54]
0	0x2406	0.01572
1	0xadad	-0.0887
2	0x2ca8	0.07275
3	0x2c33	0.0656
4	0xa54d	-0.0207
5	0x2a9f	0.05173
6	0xac29	-0.065
7	0x29e8	0.04614
8	0x2006	0.00786
9	0x2b9a	0.0594
10	0xad59	-0.08356
11	0xac4b	-0.0671
12	0xa223	-0.011986
13	0x0d60	0.000328
14	0x1899	0.002245
15	0x2cb2	0.07336
16	0xa7ce	-0.03049
17	0x18ac	0.002281
18	0x2017	0.00799
19	0xa3d4	-0.01529
20	0x2c2b	0.0651
21	0xa995	-0.0436
22	0xa6c7	-0.02647
23	0x2852	0.03375
24	0x2a80	0.05078
25	0xa4ac	-0.01825
26	0x28e0	0.0381
27	0x2411	0.01588
28	0x2c1c	0.0642
29	0xa566	-0.02109
30	0x2c6e	0.0692
31	0x2927	0.04025
32	0xa613	-0.02373
33	0xaac6	-0.05292
34	0x2be3	0.0616
35	0x26e0	0.02686
36	0x2c39	0.066
37	0x2554	0.02081
38	0xa273	-0.012596
39	0x267f	0.02538
40	0x2a46	0.049
41	0xae31	-0.09674
42	0xa9b5	-0.0446
43	0xac36	-0.0658
44	0xa2e8	-0.01349
45	0x2969	0.04227
46	0xa4b6	-0.0184
47	0xab9c	-0.05945
48	0xadbf	-0.0898
49	0x23eb	0.015465
50	0x2c73	0.0695
51	0xa29b	-0.0129
52	0x286e	0.0346
53	0xac72	-0.06946

model/tf.__operators__.add/AddV2/y f2 [120]
0	0x1a60	0.003113
1	0x1ec7	0.00662
2	0xa23c	-0.01218
3	0xa659	-0.0248
4	0xa232	-0.0121
5	0x20d1	0.00941
6	0xa1d5	-0.01139
7	0xa6c8	-0.02649
8	0xa2b6	-0.01311
9	0x291f	0.04
10	0x289b	0.03598
11	0xa1ce	-0.01134
12	0x27ca	0.03043
13	0x9b64	-0.003609
14	0x9f06	-0.00686
15	0x8251	-3.535e-05
16	0xa024	-0.00809
17	0xa1f1	-0.011604
18	0x1c24	0.004044
19	0xa5ea	-0.0231
20	0x1f2e	0.00701
21	0x1052	0.0005274
22	0x2826	0.0324
23	0xa47d	-0.01753
24	0x12b7	0.0008197
25	0xa04d	-0.0084
26	0x2c6e	0.0692
27	0x243c	0.01654
28	0x2154	0.01041
29	0x9cc8	-0.00467
30	0xa14e	-0.01036
31	0xa1aa	-0.01106
32	0xa67c	-0.02533
33	0xa294	-0.01285
34	0xa5ef	-0.02318
35	0x1431	0.001023
36	0x20ab	0.00912
37	0x2092	0.00893
38	0xa09b	-0.008995
39	0x2431	0.01637
40	0xa4a8	-0.01819
41	0xa3b7	-0.01507
42	0xa5c7	-0.02257
43	0xa2cb	-0.01327
44	0x0e8a	0.000399
45	0xa248	-0.01227
46	0x20d8	0.00946
47	0x232a	0.01399
48	0xa4e8	-0.01917
49	0xa763	-0.02885
50	0xa3bb	-0.0151
51	0x931c	-0.000868
52	0x1ecd	0.00664
53	0x9ba5	-0.003733
54	0x21f7	0.01165
55	0xa074	-0.0087
56	0x9e91	-0.006413
57	0xa471	-0.01735
58	0x2868	0.03442
59	0x1756	0.001791
60	0x26cd	0.02657
61	0x1d50	0.005188
62	0xa7eb	-0.03093
63	0xa0ac	-0.009125
64	0xa484	-0.01764
65	0x2864	0.0343
66	0x9d04	-0.004898
67	0x9cf7	-0.00485
68	0xa1eb	-0.01156
69	0x1a0f	0.002958
70	0xa439	-0.0165
71	0x23dc	0.01535
72	0xa40f	-0.01585
73	0x2bb6	0.06024
74	0x278b	0.02946
75	0x9cf2	-0.00483
76	0xa752	-0.0286
77	0xa544	-0.02057
78	0x2447	0.01671
79	0x28da	0.0379
80	0x2094	0.00894
81	0xa4fe	-0.0195
82	0x945f	-0.001067
83	0x20f6	0.00969
84	0xa185	-0.01078
85	0x08b2	0.0001433
86	0xa438	-0.01648
87	0x1d66	0.005272
88	0xa27b	-0.01266
89	0x2c9e	0.07214
90	0xa437	-0.01646
91	0x24ef	0.01927
92	0x091a	0.0001557
93	0x1d9d	0.00548
94	0x1e50	0.006165
95	0xa039	-0.00825
96	0x18d3	0.002356
97	0x9b04	-0.003426
98	0xa42d	-0.01631
99	0xa050	-0.00842
100	0x1c6b	0.004314
101	0x995f	-0.002623
102	0xa4cc	-0.01874
103	0xa888	-0.0354
104	0xa435	-0.01643
105	0x9928	-0.002518
106	0x1a30	0.003021
107	0xa09b	-0.008995
108	0x29fa	0.0467
109	0x27d9	0.03065
110	0xa1b4	-0.01114
111	0x1bab	0.003744
112	0x99f9	-0.002916
113	0xa524	-0.02008
114	0x9ee6	-0.006737
115	0x19c0	0.002808
116	0xa250	-0.01233
117	0xa496	-0.01791
118	0x96f6	-0.001699
119	0xa49b	-0.01799

model/tf.linalg.matmul/MatMul f2 [120, 3136]
0	0xa8f9	-0.03885
1	0xa92d	-0.04044
2	0xa0b8	-0.00922
3	0x2605	0.02351
4	0x24a2	0.0181
5	0x2803	0.03134
6	0x2494	0.01788
7	0x944f	-0.001052
8	0xa2d3	-0.01333
9	0x9d2f	-0.005062
10	0xaab4	-0.05237
11	0x9803	-0.001959
12	0xaaa2	-0.05182
13	0xab1e	-0.0556
14	0x1f8c	0.00737
15	0x1861	0.002138
16	0x29a8	0.0442
17	0x29a6	0.04413
18	0x2a5a	0.04962
19	0x26a5	0.02596
20	0x19b0	0.002777
21	0x2659	0.0248
22	0x2d8b	0.0866
23	0x2950	0.0415
24	0x2c72	0.06946
25	0x2193	0.01089
26	0xa59e	-0.02194
27	0xa46d	-0.01729
28	0x2440	0.0166
29	0x204e	0.00841
30	0x2d1c	0.07983
31	0x27c7	0.03038
32	0x2775	0.02913
33	0xa71b	-0.02776
34	0xa8ca	-0.0374
35	0x21d4	0.01138
36	0x289b	0.03598
37	0xa877	-0.03488
38	0xacb3	-0.0734
39	0x9941	-0.002565
40	0x2a44	0.04895
41	0x274c	0.0285
42	0x2804	0.03137
43	0xa9e5	-0.04605
44	0xa8d8	-0.03784
45	0x1971	0.002657
46	0x2a1c	0.04773
47	0x2a1f	0.04782
48	0x2b05	0.05484
49	0x2c2f	0.06537
50	0x2071	0.008675
51	0x20a5	0.00907
52	0xa3aa	-0.01497
53	0x9d03	-0.004894
54	0xa4d5	-0.01888
55	0xa12f	-0.010124
56	0x9ba2	-0.003727
57	0xa35f	-0.0144
58	0x2c21	0.0645
59	0x2824	0.03235
60	0xa519	-0.01991
61	0xa152	-0.01039
62	0x2c42	0.0665
63	0x2ddf	0.09174
64	0x2bb1	0.0601
65	0xa71b	-0.02776
66	0x219c	0.010956
67	0x26ab	0.02605
68	0xa88a	-0.03546
69	0x2075	0.008705
70	0xa154	-0.01041
71	0xa1da	-0.01143
72	0x2a59	0.0496
73	0xad1e	-0.07996
74	0xab0b	-0.05502
75	0xa645	-0.02449
76	0x2e9a	0.10315
77	0x26b3	0.02617
78	0x2508	0.01965
79	0x2432	0.01639
80	0x2ace	0.05316
81	0x2067	0.0086
82	0x2487	0.01768
83	0x24b4	0.01837
84	0x2770	0.02905
85	0x292e	0.04047
86	0x1f9e	0.00744
87	0x24b4	0.01837
88	0x2444	0.01666
89	0xa037	-0.00823
90	0x2c0f	0.0634
91	0x2721	0.02785
92	0x252c	0.0202
93	0xa37a	-0.0146
94	0x1db1	0.005558
95	0x2d61	0.08405
96	0x2f5e	0.1151
97	0x285b	0.03403
98	0x206d	0.008644
99	0x2949	0.0413
100	0x1626	0.001501
101	0xa742	-0.02835
102	0x22d7	0.01336
103	0xac4e	-0.06726
104	0xa8bc	-0.037
105	0xaa26	-0.04803
106	0x9e30	-0.006042
107	0x2668	0.02502
108	0x2800	0.03125
109	0x2e15	0.09503
110	0x28d3	0.0377
111	0x239b	0.014854
112	0x280d	0.03165
113	0x2dbc	0.0896
114	0x2d1a	0.0797
115	0x260f	0.02367
116	0xa83a	-0.03302
117	0x1fca	0.007607
118	0xa4a8	-0.01819
119	0x28c3	0.0372
120	0xac6c	-0.0691
121	0xb00e	-0.1267
122	0xab12	-0.05524
123	0x2770	0.02905
124	0x2c04	0.06274
125	0x2423	0.01616
126	0x206d	0.008644
127	0x9778	-0.001823
128	0xa51c	-0.01996
129	0xacab	-0.07294
130	0x2257	0.01238
131	0x2c2f	0.06537
132	0x223c	0.01218
133	0x2a26	0.04803
134	0xa834	-0.03284
135	0x22fc	0.01364
136	0x2881	0.0352
137	0x2c53	0.06757
138	0x2690	0.02563
139	0xa24e	-0.012314
140	0x247c	0.01752
141	0x98a2	-0.002262
142	0x24e3	0.01909
143	0x105b	0.0005317
144	0x9d5e	-0.00524
145	0xa5a3	-0.02202
146	0x2c21	0.0645
147	0x2ff6	0.1244
148	0x2b49	0.05692
149	0x2704	0.0274
150	0x26f0	0.0271
151	0x2582	0.02151
152	0x2299	0.012886
153	0x2743	0.02837
154	0x232f	0.01403
155	0xa4b9	-0.01845
156	0xacc6	-0.0746
157	0xab93	-0.05917
158	0xac6d	-0.06915
159	0xaae2	-0.05377
160	0x2736	0.02817
161	0x24d3	0.01884
162	0xa852	-0.03375
163	0xacd4	-0.07544
164	0xa517	-0.01988
165	0xa263	-0.012474
166	0xa2ce	-0.01329
167	0x1c05	0.003925
168	0x29c6	0.0451
169	0x2420	0.01611
170	0x2898	0.0359
171	0x2007	0.007866
172	0xa1ea	-0.01155
173	0x244d	0.0168
174	0x2b0d	0.05508
175	0xa6ca	-0.02652
176	0xb0c0	-0.1484
177	0xada4	-0.08813
178	0x2b35	0.0563
179	0x2d06	0.0785
180	0x21b7	0.01116
181	0x21bf	0.01122
182	0x18ca	0.002338
183	0x1eb9	0.006565
184	0x156c	0.001324
185	0xa10a	-0.00984
186	0x2624	0.02399
187	0x208e	0.008896
188	0x1e30	0.006042
189	0x20c8	0.00934
190	0x98d3	-0.002356
191	0x9239	-0.0007596
192	0xa723	-0.02788
193	0xa330	-0.01404
194	0xa8e5	-0.03824
195	0x21f1	0.011604
196	0x2b76	0.0583
197	0x2913	0.03964
198	0x2943	0.0411
199	0x24b6	0.0184
200	0x2954	0.04163
201	0x2b13	0.05527
202	0x277f	0.02928
203	0x25c2	0.02249
204	0x263a	0.02432
205	0x282d	0.03262
206	0x29b6	0.04462
207	0x25bd	0.02242
208	0x24b1	0.01833
209	0x2856	0.03387
210	0x27c4	0.03033
211	0x23cb	0.01522
212	0x219b	0.01095
213	0x27c9	0.03041
214	0x20cc	0.00937
215	0x26c4	0.02643
216	0x20ea	0.0096
217	0x1c0a	0.003944
218	0x2837	0.03293
219	0x2813	0.03183
220	0xa4ab	-0.01823
221	0xa13b	-0.010216
222	0x21f2	0.01161
223	0x29ac	0.0443
224	0x230e	0.01378
225	0x1eae	0.006523
226	0x264d	0.02461
227	0x178d	0.001843
228	0x1a94	0.003212
229	0x26e7	0.02696
230	0x8a53	-0.000193
231	0x2511	0.01979
232	0x2006	0.00786
233	0x25a2	0.022
234	0x2a71	0.05032
235	0x2506	0.01962
236	0x27e4	0.03082
237	0x294a	0.04132
238	0x2523	0.02007
239	0x9251	-0.000771
240	0x1893	0.002234
241	0x268a	0.02554
242	0x198d	0.00271
243	0xa2fa	-0.013626
244	0xa486	-0.01767
245	0x2435	0.01643
246	0x2a42	0.0489
247	0x2640	0.02441
248	0x24a0	0.01807
249	0x24da	0.01895
250	0x2a67	0.05002
251	0x2843	0.0333
252	0x24c3	0.0186
253	0xa1fc	-0.01169
254	0x2029	0.008125
255	0x2571	0.02126

model/tf.linalg.matmul_1/MatMul f2 [54, 120]
0	0xb08f	-0.1425
1	0x2aab	0.0521
2	0x2b17	0.0554
3	0x9c8d	-0.004444
4	0x2df3	0.09296
5	0x230b	0.013756
6	0xad9b	-0.0876
7	0x8a4d	-0.0001923
8	0x1c69	0.004307
9	0xafe8	-0.12354
10	0xaec3	-0.10565
11	0xac1a	-0.0641
12	0xb14c	-0.1655
13	0x2c47	0.06683
14	0x2e91	0.1026
15	0x2b07	0.0549
16	0x1b92	0.003696
17	0xa963	-0.04208
18	0x22aa	0.013016
19	0x2eab	0.1042
20	0xab26	-0.05585
21	0xaed8	-0.10693
22	0xa6d7	-0.02672
23	0xad6d	-0.0848
24	0xad62	-0.0841
25	0xad89	-0.0865
26	0xad52	-0.0831
27	0xa84f	-0.03366
28	0x2cf3	0.07733
29	0xad49	-0.0826
30	0x16ee	0.001692
31	0x28b9	0.0369
32	0xa430	-0.01636
33	0x2b35	0.0563
34	0xa403	-0.01567
35	0x20e7	0.009575
36	0x2a91	0.0513
37	0xad2c	-0.0808
38	0x2b95	0.05923
39	0x2aa4	0.05188
40	0x2cf1	0.0772
41	0x9c1c	-0.004013
42	0x2ab5	0.0524
43	0xac86	-0.0707
44	0xb2d1	-0.213
45	0xa822	-0.0323
46	0x22b0	0.01306
47	0x2ae4	0.05383
48	0xa106	-0.00981
49	0x2dde	0.0917
50	0xad7d	-0.08575
51	0xaba2	-0.05963
52	0xac34	-0.0657
53	0x98fa	-0.00243
54	0x2ccb	0.0749
55	0x1f15	0.006916
56	0x9aad	-0.00326
57	0x2ecf	0.1064
58	0xa421	-0.01613
59	0xac48	-0.0669
60	0xa6cf	-0.0266
61	0x2abd	0.05264
62	0xa7a0	-0.02979
63	0xacca	-0.0748
64	0xacc1	-0.0743
65	0xb026	-0.1296
66	0xa52e	-0.02023
67	0xad4f	-0.08295
68	0x2820	0.03223
69	0x2c5b	0.06805
70	0xad84	-0.0862
71	0xa8ee	-0.0385
72	0xa902	-0.03912
73	0x2c3f	0.06635
74	0xacbf	-0.07416
75	0xab7c	-0.05847
76	0x1f9a	0.007423
77	0xae41	-0.0977
78	0xa88d	-0.03555
79	0xa9a9	-0.04422
80	0xa49e	-0.01804
81	0xad56	-0.0834
82	0x9de8	-0.005768
83	0x2c93	0.0715
84	0x2b04	0.0548
85	0x1114	0.00062
86	0x291b	0.0399
87	0xac12	-0.0636
88	0x2c33	0.0656
89	0xad8f	-0.08685
90	0x28cf	0.03757
91	0xaf6a	-0.11584
92	0x26f6	0.02719
93	0x26d1	0.02663
94	0x285e	0.03412
95	0x1d6b	0.00529
96	0x2af5	0.05435
97	0xa22c	-0.012054
98	0x29df	0.04587
99	0x250a	0.01968
100	0x2970	0.04248
101	0x3007	0.1259
102	0xac04	-0.06274
103	0xa534	-0.02032
104	0xafa9	-0.1197
105	0x99f2	-0.002903
106	0xa8c5	-0.03726
107	0xad71	-0.085
108	0x2c38	0.0659
109	0x9704	-0.001713
110	0x2a89	0.05106
111	0x9d2f	-0.005062
112	0x1970	0.002655
113	0x2d68	0.0845
114	0x22e8	0.01349
115	0xa70e	-0.02756
116	0xae2e	-0.09656
117	0xa9b5	-0.0446
118	0x29f1	0.04642
119	0x2a10	0.04736
120	0x274a	0.02847
121	0xa9b2	-0.0445
122	0xace5	-0.0765
123	0xad7d	-0.08575
124	0x2c5a	0.068
125	0xa678	-0.02527
126	0xa5a7	-0.02208
127	0x237c	0.01462
128	0xac8d	-0.0711
129	0x2be5	0.06168
130	0x25dd	0.0229
131	0x2c1f	0.0644
132	0xb01a	-0.1282
133	0xa1eb	-0.01156
134	0x279a	0.0297
135	0xadd6	-0.0912
136	0xad88	-0.0864
137	0x2902	0.03912
138	0xa347	-0.01421
139	0xab77	-0.05832
140	0xa455	-0.01692
141	0xb00b	-0.1263
142	0xadfc	-0.0935
143	0x2d16	0.07947
144	0xaa59	-0.0496
145	0xaf7b	-0.1169
146	0x2b18	0.05542
147	0x2b28	0.0559
148	0xacea	-0.0768
149	0x2b9e	0.0595
150	0xacc2	-0.07434
151	0x2b7c	0.05847
152	0x24b8	0.01843
153	0x2b7d	0.0585
154	0x2915	0.0397
155	0x2462	0.01712
156	0x268b	0.02556
157	0xab99	-0.05936
158	0xa589	-0.02162
159	0xad36	-0.0814
160	0x0f4a	0.000445
161	0x26d6	0.0267
162	0x26f5	0.02718
163	0x2873	0.03476
164	0xad16	-0.07947
165	0x2084	0.00882
166	0x2cb9	0.0738
167	0xa102	-0.00978
168	0x2d29	0.0806
169	0x2874	0.0348
170	0xae71	-0.10065
171	0xac20	-0.06445
172	0x2169	0.01057
173	0x25b4	0.02228
174	0xac13	-0.06366
175	0xac94	-0.07153
176	0xacd7	-0.0756
177	0xa6c0	-0.02637
178	0x1b9c	0.003716
179	0xab48	-0.0569
180	0xaee7	-0.10785
181	0xb1bb	-0.1791
182	0x3054	0.1353
183	0xab83	-0.0587
184	0x29c0	0.04492
185	0xa1ed	-0.01157
186	0xae20	-0.0957
187	0xa8e4	-0.0382
188	0x2d84	0.0862
189	0x2806	0.03143
190	0x9c27	-0.004055
191	0x29e5	0.04605
192	0x28a4	0.03625
193	0xafa1	-0.1192
194	0x2d68	0.0845
195	0x9fb4	-0.007523
196	0x2ae5	0.05386
197	0xa9e8	-0.04614
198	0xad4c	-0.08276
199	0xa838	-0.03296
200	0x2004	0.00784
201	0x99f2	-0.002903
202	0x2d43	0.0822
203	0xa8c8	-0.03735
204	0x25cd	0.02266
205	0x2520	0.02002
206	0x2c22	0.0646
207	0xadd2	-0.09094
208	0xac1a	-0.0641
209	0x3048	0.1338
210	0xae13	-0.0949
211	0xaa5f	-0.04977
212	0xada1	-0.08795
213	0x297a	0.0428
214	0xac1e	-0.06433
215	0xadcb	-0.0905
216	0x282c	0.0326
217	0x2332	0.01405
218	0xab97	-0.0593
219	0x2746	0.02841
220	0xa92f	-0.0405
221	0x252e	0.02023
222	0x9ea5	-0.00649
223	0xb0e4	-0.1528
224	0x29e5	0.04605
225	0xa5ab	-0.02214
226	0x2c08	0.063
227	0xa838	-0.03296
228	0xb212	-0.1897
229	0xb0bc	-0.148
230	0xacbe	-0.0741
231	0x1f42	0.007088
232	0x283e	0.03314
233	0xa510	-0.01978
234	0xab42	-0.0567
235	0x2cfe	0.078
236	0xab7c	-0.05847
237	0xa8f5	-0.03873
238	0xa24e	-0.012314
239	0x2a43	0.04892
240	0x2946	0.0412
241	0xa420	-0.01611
242	0x2c3b	0.0661
243	0xa6a3	-0.02592
244	0x9c1a	-0.004005
245	0xad69	-0.08453
246	0x2a97	0.05148
247	0xacf8	-0.07764
248	0x22e2	0.01344
249	0x9a6f	-0.003141
250	0x2dce	0.0907
251	0xabca	-0.06085
252	0xad22	-0.0802
253	0x1be0	0.003845
254	0x2694	0.0257
255	0x2882	0.03522
