Playing Card Classifier Model/saved_model/model_float16.tflite (tflite, 774200 bytes, 8 tensors)

model/tf.math.add/Add/y f2 [6]
00000000: f29c 592f aaa6 592a 882f 972e
-0.00483 0.1148 -0.02603 0.0496 0.1177 0.10297

model/tf.math.add_1/Add/y f2 [16]
00000000: dc2c 2dad 7821 ab9b 619f 2b1f 032e f92c
00000010: b4ae af28 a625 3825 5628 dc2a c928 75a9
0.0759 -0.0809 0.01068 -0.003744 -0.007206 0.007 0.09393 0.0777
-0.10474 0.0366 0.02206 0.02039 0.03387 0.0536 0.03738 -0.04263

model/tf.nn.convolution/convolution f2 [6, 5, 5, 3]
00000000: 1e29 feab c4ab 29a6 a428 4a2d f68d 7ea3
00000010: 2628 442e 2caf 6eae c12d ca16 93ad 812f
00000020: 629f 8322 5b2e e8a5 83ad 5e2f faa5 1b24
00000030: 3ea7 1fad ceac 25ac 87ac 71b0 e329 042f
00000040: c030 f5a6 be1e 311f 112f 5a2c e4a6 d630
00000050: e32d fd25 3992 f42d a62c 9b2e 5030 ac31
00000060: ab31 c12a fe2d ab2b ad31 2430 7229 12a6
00000070: 8aaa b52e 84a8 162e 7831 6c2e 0c30 2b2e
00000080: eb30 732f 1432 6731 6931 2f2d 4a31 3a29
00000090: 6730 99aa ff28 4830 5232 5232 8128 3729
000000a0: 45a8 f3a9 f02f 9e2a 082d 02ae aba6 e02d
000000b0: 5eab 59af 5c32 8031 7231 aea7 85a6 ba2f
000000c0: b8a8 dd26 37b0 0fa8 032c ea28 732a 72b0
000000d0: 6429 0e27 e62d 16ab e9ac 0d99 69ad 99ab
000000e0: 0baf 7816 25a9 a4af d6ac cc10 deb1 55ad
000000f0: e62b 7e2d 53ad cbae c7ae d6a6 01ae de27
00000100: dab0 88b0 ceb1 01aa 4325 09a0 f9a9 8030
00000110: 772f 22aa 1e2d 27a1 5d2c 00ae 50b1 c1a7
00000120: 8296 86ae 19b0 78af 2dae 8db2 992c 8c31
00000130: 2b33 d634 2f30 ce34 2232 5c31 7f32 5b34
00000140: bb32 cc30 fa33 1d34 3333 d833 6731 1530
00000150: a131 ff31 9b34 bb34 3434 2833 9d2f bf31
00000160: ee33 4f31 1634 e934 9932 3434 9e2e 9934
00000170: 0234 1332 4e2f 0134 2b30 7230 7531 e034
00000180: 8334 7430 6133 532f 6730 1f33 d62f 8034
00000190: 0232 bc32 6834 4c33 9130 7331 d834 4e34
000001a0: 6233 a634 1c2d 2330 0a32 b834 f232 5c34
000001b0: c730 8834 cc34 6334 0333 7d33 bf32 4531
000001c0: c830 992e 0421 2533 fc30 7b30 0c33 982a
000001d0: 8c2e 3f34 8423 c832 5530 b831 531f 7f31
000001e0: 9b2d 1529 802e ab2f 0d2b b530 1f31 8b31
000001f0: 5532 5b2d 3d34 4831 652a 602f 1932 d233
0.03998 -0.06244 -0.06067 -0.02406 0.03625 0.08264 -0.0003638 -0.01463
0.0324 0.0979 -0.11206 -0.10046 0.0899 0.0016575 -0.0871 0.11725
-0.00721 0.01272 0.0993 -0.02307 -0.0861 0.1151 -0.02335 0.01604
-0.02829 -0.08 -0.0751 -0.06476 -0.07074 -0.1388 0.046 0.1096
0.1484 -0.02718 0.006584 0.007023 0.1104 0.068 -0.02692 0.1511
0.092 0.02339 -0.0007596 0.093 0.07263 0.1032 0.1348 0.1772
0.1771 0.05276 0.0936 0.0599 0.1774 0.1294 0.04254 -0.02371
-0.0511 0.1048 -0.03528 0.0951 0.1709 0.10034 0.1265 0.0964
0.1537 0.1164 0.19 0.1688 0.1691 0.081 0.1653 0.04083
0.1376 -0.05154 0.03903 0.1338 0.1975 0.1975 0.0352 0.04074
-0.03336 -0.04648 0.124 0.0517 0.0786 -0.0939 -0.02605 0.0918
-0.05756 -0.1148 0.1987 0.1719 0.1702 -0.03 -0.02547 0.1207
-0.03687 0.02681 -0.1317 -0.0317 0.0627 0.0384 0.05038 -0.1389
0.0421 0.02756 0.09216 -0.05536 -0.0767 -0.002466 -0.08453 -0.05936
-0.11005 0.001579 -0.0402 -0.1194 -0.07556 0.0005856 -0.1833 -0.0833
0.0617 0.0858 -0.0832 -0.10614 -0.1059 -0.0267 -0.0938 0.03073
-0.1516 -0.1416 -0.1814 -0.0469 0.02055 -0.00788 -0.04666 0.1406
0.11664 -0.0479 0.07996 -0.01006 0.0682 -0.09375 -0.166 -0.03029
-0.001589 -0.1019 -0.128 -0.1167 -0.0965 -0.2047 0.07184 0.1733
0.224 0.3022 0.1307 0.3003 0.1917 0.1675 0.203 0.2722
0.2103 0.1499 0.2493 0.257 0.225 0.2451 0.1688 0.1276
0.1759 0.1874 0.2878 0.2957 0.2627 0.2236 0.11896 0.1796
0.2478 0.1659 0.2554 0.307 0.2062 0.2627 0.1034 0.2874
0.2505 0.1898 0.11414 0.2502 0.1302 0.1389 0.1705 0.3047
0.282 0.1392 0.2306 0.11444 0.1376 0.2225 0.12244 0.2812
0.1877 0.2104 0.2754 0.228 0.1427 0.1703 0.3027 0.269
0.2307 0.2905 0.07983 0.1293 0.1887 0.295 0.217 0.2725
0.1493 0.2832 0.2998 0.2742 0.2191 0.234 0.2108 0.1647
0.1494 0.1031 0.009796 0.2233 0.1558 0.14 0.2202 0.0515
0.1023 0.2654 0.01468 0.2119 0.1354 0.1787 0.007153 0.1718
0.0876 0.0397 0.10156 0.1198 0.05508 0.1471 0.16 0.1732
0.1979 0.0837 0.265 0.165 0.04996 0.11523 0.1906 0.2444

model/tf.nn.convolution_1/convolution f2 [16, 4, 4, 6]
00000000: 632a 4230 d6a2 7ea8 8830 579a 70ae 0534
00000010: f32d 6bad a925 19ae e3aa f731 2429 5f30
00000020: 52b0 19b1 a426 a12e bd2f b42c bbb1 aaaf
00000030: 87b1 b92f 6aad f7af f329 392e a7b0 7c19
00000040: ffb0 06a7 e3a3 be30 4ca0 52ab 4ca1 701f
00000050: 8731 8d2c 2aac 1130 e82a ea2a c930 7ea6
00000060: 5fb1 0234 03b0 dcad 0329 382d 47b1 c92c
00000070: 0027 a5ae c332 b52b 392f 48b1 7330 8f2c
00000080: 1d31 8e31 8830 4d2c a224 9727 3e2e d12a
00000090: d52d 1d2d 7cb0 3aae 2934 fa31 bc25 cb2d
000000a0: c3ab bdaa 4733 de2b 9ba4 98ae 5a30 212f
000000b0: f220 b6a8 ed2a 87a8 b430 202f ea2a 6c2f
000000c0: 97ab 3333 80b0 c822 ac31 fe32 51aa 382c
000000d0: cbb0 50ae e42c ea2a b920 e3ad 73b0 4526
000000e0: 6929 639a f627 35b0 b624 9624 a42f 61a7
000000f0: 9b2e 6d30 2b2b 64a6 ae31 fa31 d32c e9aa
00000100: 78af 5424 2132 5d2c 9129 55ad 6921 eca4
00000110: 1e34 d729 a92d 7a2e 432b e1a2 8da4 a928
00000120: 6430 33aa 7a2f 692d 9331 8127 a724 81a8
00000130: ba2f 7f2f 2f33 692e f504 8cac 2c2c 3d27
00000140: 862e 1b30 3b2a 7b2c dcad ea2c 342c f030
00000150: ae2c b221 49a6 61ac e8a2 9c2b 1d2c 3430
00000160: a3a5 d82d f4a4 8d2f 76ab 1630 fc2e cea4
00000170: 6428 77a7 c528 1c2f 5dac f1a4 582e 8ca3
00000180: 272f 7b31 1a30 032c b22c 202a 7b2c ad33
00000190: 49a8 41ad 17a7 b330 2a28 b330 0fad 70af
000001a0: c426 2933 41b2 0234 4fb0 27b2 11a5 b7a8
000001b0: 4c2e 3e31 2b2f 21a3 86aa 8d2b a22a ab32
000001c0: 5299 9510 a42f 1c32 2b2c d530 36b1 8e24
000001d0: 9931 5834 12a5 7531 de25 3426 8433 0d33
000001e0: 1e2d 4c2c 84a0 b428 b4ad 2401 1f28 0a26
000001f0: af2d 5a2e ba30 082e 4130 4130 3ea8 6a2b
0.0499 0.133 -0.01335 -0.0351 0.1416 -0.003096 -0.1006 0.2512
0.09296 -0.08466 0.02211 -0.0953 -0.0538 0.1864 0.04016 0.1366
-0.135 -0.1593 0.02594 0.1036 0.1209 0.0735 -0.1791 -0.11975
-0.1727 0.12067 -0.0846 -0.12445 0.04648 0.0972 -0.1454 0.002678
-0.1561 -0.02744 -0.0154 0.1482 -0.00839 -0.0572 -0.010345 0.007263
0.1727 0.0711 -0.06506 0.1271 0.05396 0.05402 0.1495 -0.02536
-0.1678 0.2505 -0.1254 -0.09155 0.03915 0.08154 -0.1649 0.07477
0.02734 -0.1038 0.2113 0.0602 0.11285 -0.165 0.139 0.0712
0.1598 0.1736 0.1416 0.0672 0.0181 0.02965 0.09753 0.05325
0.0911 0.0799 -0.1401 -0.0973 0.26 0.1868 0.0224 0.0905
-0.06064 -0.05264 0.2274 0.06146 -0.01799 -0.103 0.136 0.1114
0.00966 -0.0368 0.0541 -0.03537 0.147 0.1113 0.05402 0.11597
-0.0593 0.225 -0.1406 0.013245 0.1772 0.2185 -0.04935 0.0659
-0.1498 -0.09863 0.0764 0.05402 0.009224 -0.092 -0.139 0.02449
0.04227 -0.003119 0.0311 -0.1315 0.0184 0.01791 0.1194 -0.02882
0.1032 0.1383 0.056 -0.02496 0.1775 0.1868 0.0754 -0.054
-0.1167 0.0169 0.1915 0.0682 0.0435 -0.0833 0.01057 -0.01923
0.2573 0.04562 0.08844 0.1012 0.05673 -0.013435 -0.01778 0.0364
0.1372 -0.04843 0.1168 0.08453 0.1742 0.02931 0.01817 -0.0352
0.1207 0.1171 0.2245 0.10016 7.564e-05 -0.07104 0.0652 0.02827
0.1019 0.1283 0.04868 0.07 -0.09155 0.0768 0.0657 0.1543
0.0731 0.01112 -0.02455 -0.0684 -0.01349 0.05945 0.0643 0.1313
-0.02202 0.0913 -0.01935 0.118 -0.0583 0.1277 0.10913 -0.01877
0.0343 -0.02916 0.03726 0.1111 -0.0682 -0.0193 0.0991 -0.01474
0.11176 0.1713 0.1282 0.0627 0.07336 0.04785 0.07 0.2399
-0.03348 -0.0821 -0.0277 0.1469 0.03253 0.1469 -0.07904 -0.1162
0.02643 0.2238 -0.1954 0.2505 -0.1346 -0.1923 -0.01979 -0.03683
0.0984 0.1638 0.112 -0.01392 -0.05096 0.059 0.05182 0.2084
-0.002598 0.0005593 0.1194 0.1909 0.0651 0.151 -0.1628 0.01779
0.1749 0.2715 -0.0198 0.1705 0.02292 0.02423 0.2349 0.2203
0.07996 0.06714 -0.00882 0.03674 -0.0891 1.74e-05 0.0322 0.02359
0.0888 0.09924 0.1477 0.09424 0.1329 0.1329 -0.03314 0.05792

model/18/AddV2/y f2 [54]
00000000: 232c 19ab af24 eea7 902d 152d 9728 5e2c
00000010: 6aa8 dc1a 9ead ae29 aca2 861d c2aa 0e28
00000020: c6ac 662c 932d 502c 36a7 8129 389c 072c
00000030: 5aad 69ac a1a3 512c 1ea4 08ac 4d2b 5b24
00000040: ee9b 1c2d c92c 27aa e5a5 af22 062a 3629
00000050: 8c21 af2a 8c2b 36a8 3227 c5aa 522d 2fad
00000060: 2ba9 622d eaaa 20ad c8aa 3723
0.06464 -0.05545 0.0183 -0.03098 0.0869 0.0794 0.03586 0.06824
-0.0345 0.00335 -0.08777 0.04437 -0.01303 0.005394 -0.0528 0.03168
-0.0746 0.0687 0.0871 0.0674 -0.02817 0.043 -0.00412 0.0629
-0.0836 -0.0689 -0.0149 0.06744 -0.01608 -0.063 0.05704 0.01701
-0.003872 0.07983 0.07477 -0.04807 -0.02303 0.013054 0.04706 0.0407
0.01083 0.05222 0.05896 -0.0329 0.0281 -0.0529 0.0831 -0.081
-0.04037 0.0841 -0.05402 -0.0801 -0.05298 0.01409

model/tf.__operators__.add/AddV2/y f2 [120]
00000000: 7021 75a4 0ba1 f917 0e26 3998 b9a4 6da5
00000010: 8a1f 70a4 0424 5a18 7da3 119d 6a20 619a
00000020: afa3 0ca4 e120 6d99 a21c 899b d41f 7922
00000030: 39a5 cd9c a29f 6e9e 781f 48a1 2f2b 5ba4
00000040: 4f99 b49e f79f 2fa5 2b26 02a5 82a6 c40a
00000050: 7fa4 bf9f bba2 94a1 e5a5 17a6 251b db93
00000060: c625 4c23 2b16 929e 739a 5321 53a0 4fa5
00000070: 539f 45a4 84a4 86a6 6fa4 379a ee2a 378d
00000080: f71b 4e25 2f9d 6718 49a4 1120 3a20 22a1
00000090: f49d 68a6 6b94 389e eba2 362b 7aa3 c119
000000a0: 4599 391b 6c9d 981c e31a d620 1922 9ba3
000000b0: dba4 ec28 dda4 6d20 87a3 729a fb9a 9215
000000c0: a5a5 8626 00a3 1e1a 87a4 9da5 811b 9c1f
000000d0: 0c1c 0ba6 ba20 56a6 e0a2 d6a0 97a4 901b
000000e0: 6e24 ef28 5a1d 76a4 4c9d 37a0 a11c 1b29
0.01062 -0.01741 -0.00985 0.001946 0.02365 -0.002062 -0.01845 -0.0212
0.007362 -0.01733 0.01569 0.002125 -0.014626 -0.004948 0.00862 -0.003115
-0.01501 -0.01581 0.00953 -0.00265 0.004524 -0.00368 0.007645 0.01264
-0.0204 -0.00469 -0.007454 -0.00628 0.007294 -0.010315 0.05612 -0.01701
-0.002592 -0.006546 -0.00778 -0.02025 0.0241 -0.01956 -0.02542 0.0002065
-0.01756 -0.007565 -0.013145 -0.010895 -0.02303 -0.02379 0.003489 -0.000959
0.02255 0.01425 0.001506 -0.006416 -0.003149 0.0104 -0.008446 -0.02074
-0.007153 -0.01668 -0.01764 -0.02548 -0.01732 -0.003035 0.05414 -0.0003183
0.00389 0.02072 -0.005062 0.00215 -0.01674 0.00794 0.008255 -0.010025
-0.005814 -0.02502 -0.001079 -0.006073 -0.01351 0.05634 -0.0146 0.00281
-0.002573 0.003527 -0.005295 0.004486 0.003363 0.009445 0.01191 -0.014854
-0.01897 0.03845 -0.019 0.008644 -0.0147 -0.003147 -0.003408 0.00136
-0.02205 0.02548 -0.01367 0.002987 -0.01768 -0.02193 0.003664 0.00743
0.003952 -0.0236 0.00923 -0.02475 -0.01343 -0.009445 -0.01793 0.003693
0.0173 0.03854 0.005226 -0.01743 -0.005173 -0.00823 0.00452 0.0399

model/tf.linalg.matmul/MatMul f2 [120, 3136]
00000000: 6222 3b1f c622 02a8 d21d e629 91a3 16a8
00000010: 8927 2a24 2d1e 5e22 5629 de1c 6220 26a4
00000020: 2929 0a1c 1217 e326 3016 2d23 2f2a 4423
00000030: b1af b625 fea8 ea24 011e b427 2e28 0898
00000040: 0926 972a 8322 921c b22d 17a6 84a8 d6a1
00000050: 04a7 8e2b 6020 eca6 2fa6 42ac 42a8 d5aa
00000060: b8a4 152a e727 f9a1 4628 9ea8 c8a9 9ea9
00000070: 8019 b82e b998 1fa9 d2a4 49aa 3f28 a225
00000080: 8d20 1828 d421 a8aa 89aa 20a7 8914 292d
00000090: 6298 17a6 a5a8 49a6 772c 182a b52f b128
000000a0: 3d22 43a7 99a8 6816 5ca1 622b 89a6 02ad
000000b0: adab 92a6 272c 5128 b02c 842b 5f26 0aa4
000000c0: bdaa 6ba9 9395 2c2b 332a b0a4 71ac d7a2
000000d0: 2c27 3620 702b 322c 770c 1728 0dab 69a9
000000e0: 7725 3228 2127 92a5 58a8 022c 442f ed84
000000f0: 3f25 e227 6ba7 41a3 4bac d1a6 fe20 5818
00000100: ae2a 9e9e 77a9 10a5 fca3 ddab c02d f726
00000110: 9d1f 3924 41a3 9fa6 6920 1729 0226 0620
00000120: 5e9d ffa9 f4a4 652c 4ea4 7d27 3d29 d8a8
00000130: a5a5 02a6 ce24 022d 9c21 6423 5f22 29af
00000140: d428 0c1e 32a8 2023 e828 0d1e 52a1 dba7
00000150: c016 299a 9099 96a1 2712 27a9 baa0 4026
00000160: 60a9 0a29 582b e3a1 93a2 3dac 0320 541c
00000170: c929 b216 3222 fba4 4228 a02b 391f 5b2a
00000180: 7b27 ad25 5d24 062b 6318 5c9c dd24 1c26
00000190: 981c 9d20 479c 2023 1a21 af23 6b28 d327
000001a0: 0125 1f29 1523 b616 dc24 06a6 7819 4fa6
000001b0: a123 94a2 6c08 392a 9527 2628 f024 2898
000001c0: 612b 94a1 1d25 152b 5329 6327 19a5 50a7
000001d0: ea27 1222 3aa5 8826 289c 91a8 9326 5ca8
000001e0: 14a8 43ac 5a24 4d2a 1ea4 76a1 5820 2fad
000001f0: 2c9f b3a8 0118 c327 672a 6ea9 87a6 a4ad
0.01247 0.00706 0.01323 -0.0313 0.005684 0.04608 -0.01478 -0.03192
0.02943 0.01627 0.00603 0.012436 0.0417 0.004753 0.00856 -0.0162
0.0403 0.003944 0.001726 0.0269 0.001511 0.014015 0.0483 0.01419
-0.1202 0.02231 -0.039 0.0192 0.005863 0.03009 0.03265 -0.001968
0.02357 0.05148 0.01272 0.004463 0.089 -0.02379 -0.03528 -0.0114
-0.0274 0.05902 0.008545 -0.02704 -0.02415 -0.0665 -0.03326 -0.05338
-0.01843 0.04752 0.03087 -0.011665 0.0334 -0.03607 -0.04517 -0.04388
0.002686 0.105 -0.002306 -0.04 -0.01883 -0.0491 0.03317 0.022
0.00889 0.03198 0.01138 -0.052 -0.05106 -0.02783 0.001107 0.0806
-0.00214 -0.02379 -0.0363 -0.02455 0.06976 0.0476 0.1204 0.03665
0.012184 -0.02837 -0.03592 0.001564 -0.01047 0.05768 -0.02553 -0.07825
-0.05997 -0.02567 0.0649 0.03372 0.07324 0.05872 0.02489 -0.01578
-0.05264 -0.04233 -0.001361 0.05603 0.04843 -0.01831 -0.0694 -0.01336
0.02802 0.008224 0.0581 0.06555 0.0002725 0.03195 -0.05508 -0.04227
0.02135 0.03278 0.02785 -0.02176 -0.03394 0.0626 0.1135 -7.516e-05
0.0205 0.03079 -0.02898 -0.01417 -0.0671 -0.02663 0.00975 0.002121
0.0522 -0.006462 -0.0427 -0.01978 -0.015594 -0.06143 0.08984 0.0272
0.007435 0.0165 -0.01417 -0.02586 0.00861 0.03976 0.02347 0.00786
-0.00524 -0.04684 -0.01935 0.06866 -0.01682 0.02925 0.04092 -0.03784
-0.02205 -0.02347 0.01877 0.07825 0.010956 0.014435 0.01244 -0.1119
0.03772 0.005905 -0.03278 0.013916 0.03833 0.00591 -0.01039 -0.03069
0.001648 -0.003008 -0.002716 -0.01091 0.000751 -0.04025 -0.00923 0.02441
-0.042 0.03937 0.05737 -0.0115 -0.01284 -0.0662 0.007835 0.004227
0.0452 0.001635 0.0121 -0.01945 0.03326 0.05957 0.007053 0.04965
0.02922 0.02217 0.01704 0.05487 0.002142 -0.004257 0.019 0.02386
0.004486 0.00901 -0.004177 0.013916 0.009964 0.01501 0.03452 0.03056
0.01955 0.04 0.01383 0.001638 0.01898 -0.02353 0.00267 -0.02464
0.0149 -0.01285 0.000135 0.0486 0.02962 0.0324 0.01929 -0.00203
0.05765 -0.010895 0.01997 0.05533 0.0416 0.02885 -0.01991 -0.02856
0.03091 0.011856 -0.02042 0.02551 -0.00406 -0.03568 0.02568 -0.03406
-0.03186 -0.0666 0.017 0.04922 -0.01608 -0.010666 0.008484 -0.081
-0.007004 -0.0367 0.001955 0.03032 0.05002 -0.04242 -0.0255 -0.08813

model/tf.linalg.matmul_1/MatMul f2 [54, 120]
00000000: c42c f629 3e2d 3fa7 8015 9aa9 e3a9 4da5
00000010: ab18 102d d10c 30a7 2da7 11ad c92c d024
00000020: 5829 e02e f5b0 ac27 2024 352e 8a28 95a7
00000030: 38ac 782c 2522 c0af 59a6 0da5 862c bea6
00000040: 82ac f0ae 5a2d 1a30 4db0 8a25 109f 442d
00000050: 98ac 39a8 d3a1 a1ac 7d2a d42c 3a27 9328
00000060: 87ae ada9 2d27 4798 20a4 daad b3a9 9bad
00000070: acb1 c62c 32a4 abb0 dba9 deac 8628 422b
00000080: 792d a6ae ba2d f62d 1924 dba9 74ac 482c
00000090: 7e2b fe24 39ab f3a4 ccac ed29 cc2c a729
000000a0: 361a 2b25 f8a1 652d 0e2b 2e1b 5aac b4ab
000000b0: bda9 d9a4 b520 01a8 3a2b 1bae dc28 d9ad
000000c0: e6aa 35ac 4f2b 9528 daae aa1d 41ad c4a8
000000d0: fd2c 7bb0 912c 68ad 5c28 8ea3 e0a8 1f9c
000000e0: 6d22 4ca7 d6a3 97a6 b2a9 492e 3227 9d28
000000f0: 3ab0 a229 18ad 0d2c 5c27 5f2d 29ac 28ac
00000100: 50b0 a3ac f1ad 27af 4bad 3f23 f62c b8a8
00000110: 022c c427 4faf 42b1 72a8 5b2a 3828 fdae
00000120: 2930 cb22 5c26 abad e724 87aa 392b c52d
00000130: d825 4da5 f79c 93a9 d020 b0aa e2a6 7b2a
00000140: c5ad f1ae b8aa 8c2a 22af e92c 1225 6dad
00000150: 0830 0ea2 1324 bbad b4b2 44b4 ef2d bf2d
00000160: 87ae e82c 772c 84aa 5826 fd2c 81ab 042d
00000170: de2d af2d 592e cf96 03ae 4e2b 9118 4ca4
00000180: ddad 632d 0eac f8ad 969f c12a 20a4 8827
00000190: 6327 2da9 05a6 2c28 7028 392d f728 73a8
000001a0: fa23 f1ac 68ad 19ad 23ab bca8 a12c d4b0
000001b0: 8a2c 799f a6aa e1a7 cfa2 751c 8f9d 4324
000001c0: 04b2 5eaf f5a5 9a99 112c 89ad 0bae faab
000001d0: 9eb2 b926 952c b52b beae 1492 3628 a32d
000001e0: 832b 3c0c 7ead 39a9 ed2e 85ad a4ab 092c
000001f0: 60ad 232c 60ad 60a7 ec1f beae 422f be2e
0.07446 0.04657 0.0819 -0.0283 0.001343 -0.04376 -0.046 -0.0207
0.00228 0.0791 0.000294 -0.02808 -0.02803 -0.07916 0.07477 0.0188
0.04175 0.1074 -0.1549 0.02997 0.01611 0.097 0.03546 -0.02962
-0.0659 0.0698 0.012 -0.1211 -0.0248 -0.01973 0.0707 -0.02634
-0.07043 -0.1084 0.0836 0.1282 -0.1344 0.02164 -0.006897 0.0823
-0.0718 -0.033 -0.011375 -0.0723 0.0507 0.07544 0.02823 0.03574
-0.102 -0.04434 0.02803 -0.002089 -0.01611 -0.09143 -0.04453 -0.0876
-0.1772 0.0746 -0.01639 -0.1459 -0.04575 -0.07605 0.03534 0.0567
0.0855 -0.1039 0.0895 0.09314 0.016 -0.04575 -0.0696 0.0669
0.05853 0.0195 -0.05643 -0.01933 -0.07495 0.0463 0.07495 0.04416
0.003033 0.02019 -0.01166 0.0843 0.0551 0.003506 -0.068 -0.06018
-0.04483 -0.01894 0.00919 -0.03128 0.05646 -0.0954 0.03796 -0.0914
-0.0539 -0.06573 0.0571 0.0358 -0.10706 0.00553 -0.0821 -0.03723
0.07794 -0.14 0.07135 -0.0845 0.03406 -0.014755 -0.0381 -0.004025
0.01255 -0.0285 -0.015305 -0.02574 -0.0445 0.0982 0.0281 0.03604
-0.1321 0.044 -0.0796 0.0633 0.02875 0.0839 -0.065 -0.06494
-0.1348 -0.07245 -0.09283 -0.11176 -0.0827 0.01415 0.0775 -0.03687
0.0626 0.03033 -0.1142 -0.1643 -0.03473 0.04965 0.03296 -0.1092
0.13 0.01327 0.02484 -0.08856 0.01915 -0.051 0.05643 0.09015
0.02283 -0.0207 -0.00485 -0.04355 0.0094 -0.05225 -0.02689 0.05063
-0.09015 -0.10846 -0.0525 0.05115 -0.11145 0.0767 0.0198 -0.0848
0.126 -0.011826 0.01591 -0.08954 -0.2095 -0.2666 0.0927 0.0898
-0.102 0.07666 0.06976 -0.0509 0.02478 0.07794 -0.05862 0.07837
0.0917 0.0888 0.0992 -0.001662 -0.09393 0.05707 0.00223 -0.01678
-0.0916 0.08417 -0.06335 -0.09326 -0.00741 0.05276 -0.01611 0.02942
0.02885 -0.04044 -0.02351 0.0326 0.03467 0.0816 0.0388 -0.03476
0.01558 -0.0772 -0.0845 -0.07965 -0.05576 -0.037 0.0723 -0.1509
0.0709 -0.007298 -0.05194 -0.03078 -0.0133 0.004353 -0.00543 0.01665
-0.188 -0.1151 -0.02327 -0.002735 0.06354 -0.0865 -0.0944 -0.06232
-0.2068 0.02626 0.0716 0.0602 -0.10535 -0.000742 0.0329 0.0881
0.0587 0.0002584 -0.0858 -0.0408 0.1082 -0.08624 -0.0597 0.06305
-0.084 0.06464 -0.084 -0.02881 0.007736 -0.10535 0.1134 0.10535
