Playing Card Classifier Model/saved_model/model_float16.tflite (tflite, 774200 bytes, 8 tensors)

model/tf.math.add/Add/y f2 [6]
00000000: b22c 9d28 9320 122d 9ba0 19ae
0.07336 0.03604 0.008934 0.0792 -0.008995 -0.0953

model/tf.math.add_1/Add/y f2 [16]
00000000: 8831 03b0 071e 1e30 d2a9 b6ae 2aac fdad
00000010: d630 5730 8a31 1ab0 aaac 31ac 6931 3aad
0.1729 -0.1254 0.005886 0.1287 -0.04547 -0.10486 -0.06506 -0.09357
0.1511 0.1356 0.1731 -0.1282 -0.0729 -0.0655 0.1691 -0.08167

model/tf.nn.convolution/convolution f2 [6, 5, 5, 3]
00000000: 64b0 e7aa 0da9 f4ad 3b2d b82c 39a9 6423
00000010: a0aa 1b31 452d 2e31 6231 2131 02a3 5caa
00000020: 66ac 20ac 59b0 43aa 071e ed2b a12c b3ae
00000030: 682d 482b 3a28 6e31 002e 189c 2db2 77b2
00000040: dca8 e5b1 03af fab1 ddb0 61ad 95a0 0029
00000050: 4324 4c2a 6f31 1531 9330 b69d a1b1 c0aa
00000060: 36b0 2cac 20b0 b2ae 9dac 2bb0 8d30 672b
00000070: 712d 4825 1e30 9530 69ad 8e9f 3fb2 d7b0
00000080: 3aae 3daf a0a9 a9ad 2e2c ab26 072d 8f30
00000090: 3031 2d31 8f31 c71c f62c b49f 6326 8c2e
000000a0: c28d 9a28 b12c 6125 ce2c 3da3 ba31 eb27
000000b0: fb27 f131 4324 f1af 5a1b b72b 3f2d 782c
000000c0: aaac 6aa0 52ac 8430 d6a8 b02f 5627 cda7
000000d0: b728 9daf 5eac 80b0 3522 422c 86a9 41b0
000000e0: 14ab 14ae 112e 7f2f 7330 9a24 262a a62c
000000f0: a9a9 e4ae caae 1421 b1ac 09b0 5eb1 c7ac
00000100: cbad 1aa7 522d 8728 9e2e 8e31 f431 a9b1
00000110: 32aa d7ac b596 60b1 31b2 b8ac 87b0 5bad
00000120: 1a2c 579d eeac 64a3 d524 c12d f728 6eb1
00000130: 382b 49af 922a 26b0 412d a4ac 4ca5 fca7
00000140: c32f 40a7 b326 8c31 f32e deac afa9 00b2
00000150: f3a8 8bb1 d8b0 86a9 94ac d8ac 4f29 20a2
00000160: 0e1e c731 3a2f 422a 1aa8 67b2 a7b0 8ea8
00000170: b5ad fdaa 3baf 491c 722d 12ab e230 bc2c
00000180: 9a30 1f32 a531 e8a0 6db1 87af 88a5 f8ad
00000190: 6d19 ed20 18ac 69a8 f92e 5f2f 2d21 a92a
000001a0: 7431 192d e3b0 a9ab 6bb0 9db0 98a4 3529
000001b0: 2f29 782a 3a24 8a2d b627 b71d ce2c 132f
000001c0: be32 41a9 dbae 56b1 05b2 4929 cbb0 e8ad
000001d0: e125 0917 0da8 b727 98ae 2eac 852e fc28
000001e0: a125 1c25 b3aa 7db0 b0b1 f3a8 b1ae bba4
000001f0: afae afac d8af 642d acad 0da9 58a6 a4a4
-0.1372 -0.05392 -0.03946 -0.093 0.0817 0.0737 -0.0408 0.014435
-0.05176 0.1595 0.08234 0.1619 0.1682 0.1603 -0.01369 -0.04968
-0.0687 -0.06445 -0.1359 -0.04892 0.005886 0.06192 0.0723 -0.1047
0.0845 0.0569 0.03302 0.1697 0.09375 -0.003998 -0.193 -0.202
-0.03796 -0.1842 -0.10956 -0.1868 -0.152 -0.08405 -0.00895 0.03906
0.01665 0.0492 0.1698 0.1588 0.143 -0.005577 -0.1759 -0.05273
-0.1316 -0.0652 -0.1289 -0.1046 -0.0721 -0.1302 0.1422 0.05783
0.085 0.02063 0.1287 0.1432 -0.08453 -0.007378 -0.1952 -0.1512
-0.0973 -0.1131 -0.04395 -0.08844 0.0653 0.02605 0.07855 0.1425
0.1621 0.1617 0.1737 0.004665 0.0775 -0.007523 0.02495 0.1023
-0.0003514 0.03595 0.0733 0.02101 0.0751 -0.01414 0.179 0.03093
0.03117 0.1857 0.01665 -0.1241 0.00359 0.06027 0.082 0.0698
-0.0729 -0.00862 -0.0675 0.1411 -0.03778 0.1201 0.02866 -0.03047
0.03683 -0.11896 -0.06824 -0.1406 0.01212 0.0665 -0.04315 -0.1329
-0.0553 -0.095 0.0948 0.1171 0.139 0.01797 0.04803 0.07263
-0.04422 -0.10767 -0.1061 0.00992 -0.0733 -0.1261 -0.1677 -0.07465
-0.0905 -0.02774 0.0831 0.03537 0.1034 0.1736 0.186 -0.1769
-0.0484 -0.0756 -0.001637 -0.168 -0.1935 -0.0737 -0.1415 -0.0837
0.0641 -0.005215 -0.077 -0.014435 0.01888 0.0899 0.0388 -0.1697
0.0564 -0.11383 0.05133 -0.1296 0.0821 -0.0725 -0.02069 -0.03119
0.1213 -0.02832 0.02617 0.1733 0.1086 -0.07605 -0.0444 -0.1875
-0.03867 -0.1732 -0.1514 -0.04315 -0.07153 -0.0757 0.04147 -0.01196
0.005913 0.1805 0.1129 0.0489 -0.03204 -0.2001 -0.1454 -0.03558
-0.0892 -0.0546 -0.113 0.004185 0.0851 -0.05524 0.1526 0.074
0.1438 0.1913 0.1764 -0.00958 -0.1696 -0.1176 -0.0216 -0.09326
0.00265 0.00962 -0.06396 -0.03445 0.10895 0.1152 0.01011 0.05203
0.1704 0.07965 -0.1527 -0.05984 -0.1381 -0.1442 -0.01794 0.04068
0.0405 0.05054 0.01651 0.08655 0.03012 0.00558 0.0751 0.11053
0.2107 -0.04105 -0.1071 -0.1667 -0.1881 0.0413 -0.1498 -0.0923
0.02296 0.001718 -0.03165 0.03014 -0.103 -0.0653 0.10187 0.03894
0.02199 0.01996 -0.05234 -0.1403 -0.1777 -0.03867 -0.10455 -0.01848
-0.10443 -0.0732 -0.12256 0.0842 -0.0886 -0.03946 -0.02478 -0.01813

model/tf.nn.convolution_1/convolution f2 [16, 4, 4, 6]
00000000: cd32 f831 e833 d531 93b0 2f2a a131 682e
00000010: 5e31 5530 7db3 9a24 479d d3aa 46ab c7ae
00000020: 16a9 6423 8e1f 62b2 eaac 09ab e321 20ae
00000030: 20a6 cf26 a72c a129 cdb0 302a 6d29 1f98
00000040: 2d2f 0d2c d4b2 521c c9ae 78b2 79b1 4ba5
00000050: d8b0 e926 072c 27b1 26ac d2ac f12c efa8
00000060: 1a30 c0a9 0d2a a830 3b23 3e22 522a 61af
00000070: d5aa b1ae 28b0 e52a 8420 76b0 06a9 eba6
00000080: eba9 552e 1bae ffa6 dcad 4bb0 912b f8a3
00000090: 0924 e1aa b3ae b2ae 57ab 1d20 e526 04ae
000000a0: c6aa 5db0 a4ac f11d 9aa6 7f2c 92b0 c821
000000b0: 1330 d0a2 6ea6 0f2e d3a0 a4af 4531 cb29
000000c0: a631 8f2d 6830 f326 822b 489e 272b 8730
000000d0: 0bab 5224 b223 6e2c 651f 4030 242a 1bad
000000e0: d416 2024 ea13 cbac 742d 4eac dfa5 41ac
000000f0: 1732 8334 0132 1e2a ba30 312e 152f 9434
00000100: 832c 5430 5931 7915 cb2e b72b 8b2c c929
00000110: aeaa ba25 daac 4d2e 26a4 969b fa2c 572a
00000120: 0933 2030 9b34 262a fd30 6a2c b933 c833
00000130: af31 7f2a c02f 33a8 f233 0231 3530 5916
00000140: a325 432d bf30 1632 9932 8932 0828 872a
00000150: f832 de2f 8731 3e2e a831 8ead 2734 e02f
00000160: 7233 f431 f52d 6daa db31 8134 1435 1134
00000170: 3d2c 24aa 472c 8529 6431 0a31 f82c b0a3
00000180: a5af 0eb3 52ae 3d2b e7ae 69a4 151e 55b3
00000190: 98af 242e f034 7b29 fbb0 05b0 38b5 98ab
000001a0: 8b38 f8ac 5eae 2735 bbb3 f6b1 d037 c92d
000001b0: f4b3 00b3 76b4 0fb1 3b29 952b 6eb2 58ae
000001c0: 58b3 97b2 8d38 b3aa adb3 722b 1db4 7cac
000001d0: e138 9625 c2ad b034 90b2 1ba7 7b36 49a1
000001e0: 32b2 c42a d6af 47b0 bd36 322b 5628 0934
000001f0: 67b0 4131 cd37 49a3 27af 7932 88ad 832d
0.2125 0.1865 0.2471 0.1823 -0.143 0.0483 0.1759 0.1001
0.1677 0.1354 -0.234 0.01797 -0.005154 -0.0533 -0.05682 -0.1059
-0.03973 0.014435 0.007378 -0.1995 -0.0768 -0.05496 0.0115 -0.0957
-0.02393 0.0266 0.0727 0.04398 -0.15 0.04834 0.0424 -0.002012
0.1121 0.0633 -0.2134 0.00422 -0.106 -0.2021 -0.171 -0.02068
-0.1514 0.027 0.0629 -0.161 -0.0648 -0.0753 0.0772 -0.03854
0.1282 -0.04492 0.04727 0.1455 0.01412 0.01219 0.04938 -0.1153
-0.05338 -0.10455 -0.1299 0.05386 0.00882 -0.1394 -0.03925 -0.02702
-0.04623 0.09894 -0.0954 -0.02733 -0.09155 -0.1342 0.0591 -0.015564
0.01576 -0.05374 -0.1047 -0.1046 -0.05734 0.00803 0.02693 -0.094
-0.05292 -0.1364 -0.0725 0.005802 -0.02579 0.07025 -0.1428 0.01129
0.1273 -0.013306 -0.02512 0.09467 -0.00942 -0.1194 0.1647 0.04526
0.1765 0.08685 0.1377 0.02715 0.05865 -0.006134 0.05588 0.1415
-0.05502 0.01688 0.01503 0.0692 0.00722 0.1328 0.04797 -0.0798
0.001667 0.01611 0.000966 -0.0749 0.0852 -0.06726 -0.02293 -0.06647
0.1903 0.282 0.1876 0.0478 0.1477 0.09674 0.11066 0.2861
0.0705 0.1353 0.1671 0.001336 0.10614 0.06027 0.071 0.0452
-0.0522 0.02237 -0.0758 0.09845 -0.0162 -0.003704 0.07776 0.04953
0.2198 0.1289 0.2878 0.04803 0.1559 0.069 0.2413 0.2432
0.1776 0.05075 0.1211 -0.0328 0.2483 0.1565 0.1315 0.00155
0.02202 0.0822 0.1483 0.1902 0.2062 0.2042 0.0315 0.051
0.2178 0.1229 0.1727 0.09753 0.1768 -0.0868 0.2595 0.12305
0.2327 0.186 0.0931 -0.0502 0.183 0.2815 0.3174 0.2542
0.0662 -0.04797 0.06683 0.04312 0.1685 0.1575 0.07764 -0.015015
-0.11945 -0.2205 -0.09875 0.05655 -0.10785 -0.01723 0.00594 -0.2291
-0.11865 0.09595 0.3086 0.04282 -0.1556 -0.1256 -0.3262 -0.05933
0.568 -0.07764 -0.0995 0.322 -0.2416 -0.1863 0.4883 0.0904
-0.2485 -0.2188 -0.2788 -0.1581 0.04086 0.05923 -0.2009 -0.0991
-0.2295 -0.2059 0.569 -0.05234 -0.2399 0.05817 -0.257 -0.07007
0.61 0.02182 -0.08997 0.293 -0.2051 -0.02776 0.405 -0.01032
-0.1936 0.05286 -0.12244 -0.1337 0.4211 0.0562 0.03387 0.2522
-0.1376 0.1642 0.4875 -0.01423 -0.11176 0.2023 -0.0864 0.0861

model/18/AddV2/y f2 [54]
00000000: 1921 3c93 2fab 94ac 8e2a 88a8 eaaa adac
00000010: 1526 822f d028 d2ad 8eac 94ad 932f 9825
00000020: c1aa 9b2a 47a7 dfaa f1a8 1b23 be2a bdad
00000030: 792a 782b 9823 af2c 862a 812a abaa e9a9
00000040: 14a9 5d2c 412c 80a4 e62b b324 8694 e0ac
00000050: 39ab d6a9 3521 382d 4626 cea9 ae2b 5ca6
00000060: 8426 05a5 bda4 7c9a b824 c12c
0.00996 -0.000883 -0.05612 -0.07153 0.0512 -0.0354 -0.05402 -0.07306
0.02376 0.1173 0.0376 -0.09094 -0.07117 -0.08716 0.11835 0.02185
-0.05276 0.0516 -0.02843 -0.05368 -0.0386 0.01388 0.05267 -0.08966
0.05057 0.05835 0.01483 0.0732 0.05096 0.0508 -0.0521 -0.04617
-0.03967 0.0682 0.06647 -0.01758 0.0617 0.01836 -0.001104 -0.0762
-0.05643 -0.0456 0.01017 0.08154 0.0245 -0.04535 0.06 -0.02484
0.02545 -0.0196 -0.01851 -0.003166 0.01843 0.0743

model/tf.__operators__.add/AddV2/y f2 [120]
00000000: 3112 a8a1 7699 681a 9721 22a4 1e9e 2190
00000010: de26 88a0 9626 781e 4ba1 3b20 e5a0 5a27
00000020: 92a4 4128 6e19 f620 c9a4 73a7 a11f 1aa0
00000030: 89a5 119f 4999 b0a1 2ea4 14a3 b6a0 ada4
00000040: feab 62a7 a525 a896 fa1f 3aa5 10a6 64a3
00000050: 1820 029a 909a be9a 32a4 b6a4 e52d 490e
00000060: 9ba7 dea4 d59b 3720 759d 34a3 169a 6820
00000070: 249c d42a 282c 44a7 96a4 979c 892b 1b9c
00000080: 7d2a 12a1 0b95 6324 20a3 33a4 f8a5 fe21
00000090: c418 d199 0c27 271c 8ca2 6d9c 44a5 27a5
000000a0: 1d9d 122c 342c 539d 70a0 e6a3 a529 1da3
000000b0: d01e 5ba8 5aa5 e3a5 6ca0 d99e 03a4 941d
000000c0: ee20 a0a1 a0a4 a71a 18a2 3ca4 1b95 bb08
000000d0: b388 0699 f390 84a4 6ca3 9ea5 9423 fc95
000000e0: 3aa0 11a0 c49c 891e 5c1c d517 e0a1 5322
0.000756 -0.01105 -0.002666 0.003128 0.01092 -0.01614 -0.005974 -0.000504
0.02682 -0.00885 0.02573 0.006317 -0.01034 0.00826 -0.00956 0.02872
-0.01785 0.03323 0.002651 0.00969 -0.01869 -0.0291 0.00745 -0.00801
-0.02162 -0.0069 -0.00258 -0.01111 -0.01633 -0.013824 -0.0092 -0.01826
-0.06244 -0.02884 0.02205 -0.001625 0.00779 -0.02042 -0.02368 -0.014435
0.007996 -0.002934 -0.003204 -0.003292 -0.01639 -0.0184 0.0921 0.0003836
-0.02971 -0.01901 -0.003824 0.00823 -0.00533 -0.01407 -0.002972 0.008606
-0.004044 0.05334 0.06494 -0.02838 -0.01791 -0.004482 0.05887 -0.00401
0.0507 -0.0099 -0.001231 0.01714 -0.013916 -0.0164 -0.02332 0.0117
0.002327 -0.00284 0.02753 0.004055 -0.01279 -0.004322 -0.02057 -0.02013
-0.004993 0.0636 0.0657 -0.0052 -0.00867 -0.01543 0.0441 -0.01389
0.006653 -0.03403 -0.0209 -0.023 -0.00864 -0.006687 -0.01567 0.005447
0.00963 -0.01099 -0.01807 0.003248 -0.0119 -0.01654 -0.001246 0.0001444
-0.0001434 -0.002453 -0.000604 -0.01764 -0.014496 -0.02194 0.0148 -0.001461
-0.008255 -0.00794 -0.004654 0.006382 0.004257 0.001912 -0.011475 0.01235

model/tf.linalg.matmul/MatMul f2 [120, 3136]
00000000: 7921 08a4 5b1e b31e cca5 52a4 0795 009e
00000010: 839f 7e92 4118 08a3 1522 bba3 011e 7a10
00000020: 98a4 13a2 35a5 ff1f a69e cba2 af1d 899f
00000030: f91b de9c 051c 66a1 5622 0ca0 4921 321b
00000040: d820 ce99 a7a4 9e21 fa9c ec1c 9da5 66a3
00000050: 07a0 9a22 fa1d 8b00 a9a4 841d 7b21 c220
00000060: 37a4 c0a1 6f1f 54a2 d79a f7a1 40a0 ce21
00000070: 5682 471a 4716 eaa5 3f21 a4a5 e1a2 bd9e
00000080: d2a1 1f1c fc97 b3a4 2219 8e99 a91e 41a3
00000090: 8fa4 1ca3 13a2 689b b79e 2d23 bb20 7521
000000a0: 659d 039d 1921 6121 78a3 4e9c 2ea6 cba3
000000b0: 061d ec8c f1a3 7423 ab20 421d e321 aba4
000000c0: d3a2 5496 611e 231b 2b20 32a5 831e fda2
000000d0: 289f 1ea1 131c 7021 aa96 0a1d a11e 20a2
000000e0: 53a4 e412 1e9f 2918 4a9f 9720 0a22 3c1b
000000f0: 4da3 2d22 fe20 9fa1 339d d9a0 ab20 aaa3
00000100: 1713 941d aa1a 3c9c 6f21 63a4 2ea4 04a4
00000110: 5ba3 fb11 e615 71a0 5aa1 16a6 b898 a71f
00000120: 7520 8e20 cd9f 58a5 8320 7ca5 cca5 9318
00000130: 929b 7f1f 7c9d 36a6 c522 8b21 1f1f 9f10
00000140: bb21 1b21 789a 56a4 ada5 5aa0 d5a2 24a4
00000150: 181e 0fa5 4da4 ce1e fc1f 72a0 36a2 ec1c
00000160: 4a9e df20 741c 999d 2fa3 101d ff9d 091e
00000170: 261d a09b 501d 379e fa18 68a5 f39d b120
00000180: 609f 56a5 daa5 fe9b 9ba4 9d1f 6c21 4222
00000190: 73a4 f89b a89d bf20 fd1d 59a0 2022 5099
000001a0: 4f1c 551c ae1f 4725 3721 55a1 f218 1017
000001b0: d110 2597 11a3 aaa4 6da1 3910 d622 e818
000001c0: 21a0 d71a 3222 2b20 48a4 83a5 18a5 75a0
000001d0: 311e 5d9d a89c 6d1e 149c 05a4 ce21 ac22
000001e0: 9d21 0b94 fca0 5220 f719 4c97 08a2 dda4
000001f0: 0c23 afa5 1224 4c18 3b0f 6824 3820 02a3
0.01069 -0.01575 0.006207 0.006542 -0.02264 -0.01688 -0.001227 -0.00586
-0.007336 -0.0007925 0.002077 -0.01373 0.01188 -0.0151 0.005863 0.0005465
-0.01794 -0.01186 -0.02034 0.00781 -0.006493 -0.01327 0.00555 -0.00736
0.003893 -0.004753 0.003925 -0.010544 0.012375 -0.007904 0.01032 0.003513
0.00946 -0.002834 -0.01817 0.01097 -0.00486 0.004807 -0.02193 -0.01445
-0.007866 0.01289 0.005836 8.3e-06 -0.0182 0.005386 0.010704 0.00929
-0.01646 -0.01123 0.00726 -0.01236 -0.00334 -0.01165 -0.0083 0.01134
-3.564e-05 0.003065 0.001533 -0.0231 0.01025 -0.02203 -0.013435 -0.00658
-0.01137 0.004025 -0.001949 -0.01836 0.002506 -0.002712 0.006504 -0.01417
-0.0178 -0.013885 -0.01186 -0.003616 -0.006557 0.014015 0.00924 0.01066
-0.00527 -0.004894 0.00996 0.010506 -0.01459 -0.004204 -0.02414 -0.01522
0.004906 -0.0003004 -0.01551 0.01456 0.00912 0.005135 0.0115 -0.01823
-0.01333 -0.001545 0.00623 0.003485 0.00814 -0.0203 0.00636 -0.01365
-0.00699 -0.009995 0.00398 0.01062 -0.001627 0.00492 0.006474 -0.01196
-0.01689 0.000841 -0.00695 0.002031 -0.00712 0.008965 0.011795 0.003532
-0.01426 0.01206 0.00975 -0.01098 -0.005077 -0.00947 0.00912 -0.01497
0.0008655 0.005447 0.003254 -0.004135 0.01061 -0.01714 -0.01633 -0.01569
-0.014366 0.00073 0.00144 -0.008675 -0.01045 -0.02377 -0.002304 0.007473
0.008705 0.008896 -0.007618 -0.02087 0.00881 -0.02142 -0.02264 0.002234
-0.003696 0.00732 -0.005356 -0.02426 0.01322 0.010826 0.006954 0.000564
0.01119 0.00997 -0.003159 -0.01694 -0.02217 -0.0085 -0.01334 -0.01617
0.00595 -0.01976 -0.0168 0.006645 0.007797 -0.00868 -0.01213 0.004807
-0.00614 0.009514 0.00435 -0.005466 -0.01403 0.004944 -0.005856 0.005894
0.005028 -0.003723 0.005188 -0.00607 0.00243 -0.02112 -0.00581 0.00916
-0.007202 -0.02084 -0.02286 -0.003902 -0.01799 0.007435 0.01059 0.01222
-0.01738 -0.003891 -0.005524 0.00927 0.005848 -0.00849 0.01196 -0.002594
0.004208 0.00423 0.0075 0.02061 0.010185 -0.010414 0.002415 0.001724
0.000588 -0.001744 -0.0138 -0.01822 -0.0106 0.0005155 0.01335 0.002396
-0.008064 0.00334 0.0121 0.00814 -0.01672 -0.02153 -0.0199 -0.008705
0.006046 -0.005238 -0.004547 0.006275 -0.003983 -0.0157 0.01134 0.01303
0.01096 -0.000987 -0.009735 0.00844 0.002913 -0.001781 -0.01178 -0.019
0.01376 -0.0222 0.0159 0.002098 0.0004413 0.01721 0.00824 -0.01369

model/tf.linalg.matmul_1/MatMul f2 [54, 120]
00000000: 38a0 7228 4d2c 5029 4fac 0baa 452d 57ad
00000010: 69af eca4 5730 a126 5aa9 8f2a 11ad 8d2d
00000020: ce29 e3a6 862c ae24 e127 bfa8 8527 181e
00000030: ce25 2828 822c 3ea6 bf2a ec2d 7929 24a6
00000040: f626 0427 4830 8224 3bab 452a 089d 942a
00000050: 842b 0395 fdac db29 7e2c b1ad 8ca9 2426
00000060: f4a8 d1ad 2328 9ca8 b6a4 0aad 2b99 a2ab
00000070: aa2a 1427 1d28 3b2b 3920 1daa a32c e1af
00000080: 47a9 bead 712b 68a6 9f2a c228 84ab e1a1
00000090: 13a8 8dad 1bac cfa9 67b0 5f28 8028 8d26
000000a0: 46a4 f8ad f4a8 302a 4817 982c 342a 20ae
000000b0: 2bad 2aaf 4cad 8dad e1a8 35a6 02b0 e220
000000c0: b0a8 801e fbae 3ca8 06a7 3aaa d8a8 1629
000000d0: 24ad 3cac 1324 bbab 9b2c 842b 482b 709d
000000e0: 7aad 10ae 3dac df2c 5ea2 4423 8fae 9228
000000f0: 57a8 53a8 8ca4 f2a8 0aa7 10a6 daad 692d
00000100: b1b2 64a4 a02a 7fad 4428 012b 9525 c4b0
00000110: 0bb4 a7b0 509c e32b 7b28 922e c92d a524
00000120: dfa4 542d f5a7 4b2d 402a 682f 4329 cf2b
00000130: 562d 7aa8 322d d022 7629 fbab df21 581e
00000140: 38ab 78ad 32ad 4322 cbab 7dad 20ab 7aaa
00000150: b5a8 47ac c6ac a32b 7ea2 3224 35a9 0e2d
00000160: 36a4 f62e 91b3 7b2b 81b1 ffac 14a2 4faf
00000170: 1f2a 28ac 2421 31b2 f118 c725 7827 401b
00000180: 1d0c 36a6 35b4 452a 22aa 88a9 ff26 d4ac
00000190: 8728 5229 b6af 5ca4 0aab 66ae efa8 daa8
000001a0: a329 8fa9 11ac f2ac c82c c4aa 67a8 fe28
000001b0: c7a2 c999 a72b a6a9 5428 182b 1426 292a
000001c0: db2b 90b1 f928 7829 5aa4 a79c f428 10a6
000001d0: 33ad 1128 3b2c 4d2a cf28 5730 2528 782b
000001e0: 1a2c 7c9a 2a2d bdaa c9a4 51ad 6b26 7328
000001f0: 27a9 5bab 4b8c 5d27 b8ac 07ae 6e1d bbad
-0.00824 0.03473 0.0672 0.0415 -0.0673 -0.0472 0.08234 -0.08344
-0.1158 -0.01923 0.1356 0.0259 -0.0418 0.05124 -0.07916 0.08673
0.04535 -0.0269 0.0707 0.01828 0.03078 -0.03708 0.02937 0.00595
0.02267 0.03247 0.07043 -0.02438 0.0527 0.0925 0.04276 -0.02399
0.02719 0.0274 0.1338 0.01761 -0.0565 0.04898 -0.004913 0.0514
0.05872 -0.001224 -0.07794 0.04575 0.0702 -0.0889 -0.04333 0.02399
-0.0387 -0.0909 0.03232 -0.036 -0.0184 -0.07874 -0.002523 -0.05963
0.05206 0.02765 0.03214 0.0565 0.00825 -0.04776 0.07245 -0.1231
-0.04123 -0.0897 0.05814 -0.02502 0.05173 0.03717 -0.05872 -0.01148
-0.03183 -0.08673 -0.06415 -0.04538 -0.1376 0.03415 0.03516 0.02559
-0.0167 -0.09326 -0.0387 0.04834 0.001778 0.0718 0.04846 -0.0957
-0.08075 -0.11194 -0.08276 -0.08673 -0.03812 -0.02425 -0.1252 0.00954
-0.03662 0.006348 -0.1091 -0.03308 -0.02744 -0.04865 -0.03784 0.03973
-0.0803 -0.06616 0.01591 -0.0604 0.07196 0.05872 0.0569 -0.00531
-0.0856 -0.0947 -0.0662 0.0761 -0.012436 0.01419 -0.1025 0.0357
-0.0339 -0.03378 -0.01776 -0.03864 -0.0275 -0.02368 -0.09143 0.08453
-0.2091 -0.01715 0.05176 -0.0859 0.03333 0.05472 0.0218 -0.1489
-0.2527 -0.1454 -0.00421 0.0616 0.035 0.10266 0.0904 0.01814
-0.01903 0.08325 -0.03108 0.0827 0.04883 0.1157 0.0411 0.061
0.0834 -0.03497 0.0812 0.013306 0.04266 -0.06235 0.01147 0.006195
-0.0564 -0.08545 -0.0812 0.01223 -0.06088 -0.08575 -0.05566 -0.0506
-0.03677 -0.06683 -0.0746 0.05966 -0.01268 0.01639 -0.04068 0.079
-0.01645 0.10876 -0.2365 0.05844 -0.172 -0.07806 -0.01187 -0.1142
0.04782 -0.06494 0.01004 -0.1935 0.002413 0.02257 0.02917 0.00354
0.000251 -0.02426 -0.263 0.04898 -0.0479 -0.0432 0.02733 -0.07544
0.03537 0.04156 -0.1205 -0.01703 -0.055 -0.1 -0.03854 -0.0379
0.04404 -0.04343 -0.06354 -0.0773 0.0747 -0.05286 -0.0344 0.039
-0.01324 -0.002825 0.05978 -0.04413 0.0338 0.05542 0.02374 0.04813
0.06137 -0.1738 0.03885 0.04272 -0.017 -0.004543 0.0387 -0.02368
-0.08124 0.03177 0.0661 0.04922 0.03757 0.1356 0.03238 0.05835
0.0641 -0.003166 0.0807 -0.05264 -0.01869 -0.08307 0.02507 0.03476
-0.04025 -0.05746 -0.000262 0.02876 -0.0737 -0.0942 0.005302 -0.08954
