Playing Card Classifier Model/saved_model/model_float16.tflite (tflite, 774200 bytes, 8 tensors)

model/tf.math.add/Add/y f2 [6]
0	0x2ddb	0.0915
1	0x2a60	0.0498
2	0x2d51	0.08307
3	0x2f66	0.1156
4	0x31a6	0.1765
5	0x29ad	0.04434

model/tf.math.add_1/Add/y f2 [16]
0	0xade9	-0.09235
1	0xae3f	-0.0976
2	0xabaf	-0.06003
3	0xace3	-0.07635
4	0xaac0	-0.05273
5	0x30d0	0.1504
6	0x2bf6	0.0622
7	0x2b2f	0.05612
8	0xaf80	-0.1172
9	0xaee6	-0.1078
10	0xac93	-0.0715
11	0xad22	-0.0802
12	0xaf51	-0.1143
13	0xad1f	-0.08
14	0x30bf	0.1483
15	0xa387	-0.0147

model/tf.nn.convolution/convolution f2 [6, 5, 5, 3]
0	0xaf10	-0.11035
1	0xa242	-0.01222
2	0x2831	0.03275
3	0x9887	-0.00221
4	0x2c04	0.06274
5	0xae33	-0.09686
6	0xac41	-0.06647
7	0xafc0	-0.1211
8	0xafd5	-0.1224
9	0xad7e	-0.0858
10	0xae80	-0.10156
11	0xb23f	-0.1952
12	0xb040	-0.1328
13	0xa3df	-0.01537
14	0xb0ee	-0.154
15	0x2ce9	0.0767
16	0xabf4	-0.06213
17	0xad8a	-0.08655
18	0x2113	0.00991
19	0x2e83	0.10175
20	0xa576	-0.02133
21	0xaa7c	-0.05066
22	0xad46	-0.0824
23	0xb03c	-0.1323
24	0x1d53	0.0052
25	0xb12c	-0.1616
26	0xb04d	-0.1344
27	0xae15	-0.09503
28	0xaeb5	-0.1048
29	0xab3d	-0.05655
30	0x2f9c	0.1189
31	0x2718	0.02771
32	0x22c1	0.01319
33	0x2d4b	0.0827
34	0x2f1f	0.11127
35	0xa389	-0.01472
36	0x2eb8	0.105
37	0x29b0	0.04443
38	0x2ef9	0.10895
39	0x27dd	0.03072
40	0x2cb2	0.07336
41	0x2410	0.01587
42	0xab4f	-0.0571
43	0xadad	-0.0887
44	0xa43a	-0.01651
45	0xa132	-0.01015
46	0x3016	0.1277
47	0x30db	0.1517
48	0x2fa0	0.11914
49	0x155d	0.001309
50	0x2d61	0.08405
51	0xa634	-0.02423
52	0x9fbe	-0.00756
53	0xaade	-0.05365
54	0xa709	-0.02748
55	0x279b	0.02971
56	0x2da1	0.08795
57	0xa776	-0.02914
58	0x2047	0.008354
59	0xafa0	-0.11914
60	0x2c58	0.0679
61	0x224a	0.01228
62	0xac02	-0.0626
63	0xa34e	-0.01427
64	0x2ff3	0.1242
65	0x2d0a	0.07874
66	0x30a4	0.145
67	0xa9cc	-0.0453
68	0x30c4	0.1489
69	0x2eaa	0.1041
70	0x2abe	0.05267
71	0x2c70	0.06934
72	0x2c02	0.0626
73	0x2906	0.03925
74	0x2dc8	0.09033
75	0x2379	0.014595
76	0x2e87	0.102
77	0x2dc1	0.0899
78	0xaaca	-0.05304
79	0x2a3f	0.0488
80	0x2ec7	0.1059
81	0xa435	-0.01643
82	0xadaa	-0.0885
83	0xa604	-0.0235
84	0x28c2	0.03717
85	0xad28	-0.08057
86	0x2d88	0.0864
87	0x307c	0.1401
88	0x1f76	0.007286
89	0xaa81	-0.0508
90	0x29f5	0.04654
91	0x3038	0.1318
92	0xab79	-0.05838
93	0xa796	-0.02963
94	0xacd8	-0.0757
95	0x2e91	0.1026
96	0x29ca	0.04523
97	0x2d05	0.0784
98	0xaab3	-0.05234
99	0x2ef8	0.1089
100	0x9907	-0.002455
101	0xadaf	-0.0888
102	0x2efb	0.1091
103	0x29dc	0.04578
104	0x258b	0.02165
105	0xa8f9	-0.03885
106	0xa458	-0.01697
107	0xaea2	-0.10364
108	0xb084	-0.1411
109	0xb024	-0.1294
110	0x2bb4	0.06018
111	0x2964	0.0421
112	0x2971	0.0425
113	0x2c86	0.0707
114	0x27f8	0.03113
115	0x194c	0.002586
116	0x253c	0.02045
117	0x2569	0.02113
118	0x2af5	0.05435
119	0x9388	-0.0009193
120	0xadb1	-0.0889
121	0xa951	-0.04153
122	0xb0ae	-0.1462
123	0xa8ad	-0.03653
124	0xb03f	-0.1327
125	0xb0ff	-0.1561
126	0xa549	-0.02065
127	0x2d01	0.0782
128	0xa88e	-0.03558
129	0xac87	-0.07074
130	0x25f0	0.0232
131	0x2dad	0.0887
132	0x2932	0.0406
133	0x2d4b	0.0827
134	0xa18f	-0.01086
135	0xb0bd	-0.1481
136	0xa8ef	-0.03854
137	0x2914	0.03967
138	0xab71	-0.05814
139	0x2af0	0.0542
140	0xaec3	-0.10565
141	0xac44	-0.06665
142	0xb02f	-0.1307
143	0x261a	0.02383
144	0xa5cd	-0.02266
145	0x2d45	0.08234
146	0xaa35	-0.0485
147	0x259b	0.0219
148	0x28de	0.03802
149	0x1c63	0.004284
150	0xa92d	-0.04044
151	0x2c58	0.0679
152	0x3105	0.1569
153	0x2aec	0.05408
154	0x2c57	0.0678
155	0x317f	0.1718
156	0x2f20	0.1113
157	0x3045	0.1334
158	0x2dfd	0.09357
159	0x3162	0.1682
160	0x2f94	0.1184
161	0x1c1c	0.004013
162	0x9d0b	-0.004925
163	0x2a58	0.04956
164	0x2d81	0.086
165	0xa637	-0.02428
166	0x2d5a	0.0836
167	0xa481	-0.0176
168	0x31ab	0.1771
169	0x2c4e	0.06726
170	0xa395	-0.01481
171	0x2cc4	0.07446
172	0x2f80	0.1172
173	0x2c24	0.0647
174	0xa706	-0.02744
175	0x2ada	0.05353
176	0x259a	0.02188
177	0x2c95	0.0716
178	0x3044	0.1333
179	0x9f0b	-0.006878
180	0x2e77	0.101
181	0x2c7a	0.06995
182	0x2a10	0.04736
183	0x1b1f	0.003477
184	0x9f35	-0.00704
185	0xaa6a	-0.0501
186	0x2e43	0.09784
187	0x2f14	0.1106
188	0xae38	-0.09717
189	0x2ca9	0.0728
190	0xaea5	-0.1038
191	0x262f	0.02415
192	0xa948	-0.04126
193	0xaf4d	-0.1141
194	0xab19	-0.05545
195	0x2886	0.03534
196	0xa781	-0.02931
197	0xab9a	-0.0594
198	0xac72	-0.06946
199	0xadee	-0.09265
200	0xaffd	-0.1248
201	0x27c4	0.03033
202	0xac14	-0.0637
203	0xadcf	-0.09076
204	0xa681	-0.0254
205	0xb11f	-0.16
206	0xb04b	-0.1342
207	0xab74	-0.05823
208	0x2045	0.00834
209	0xb277	-0.202
210	0x1884	0.002205
211	0xae98	-0.103
212	0xabdc	-0.0614
213	0xaff4	-0.12427
214	0x2280	0.012695
215	0xa875	-0.03482
216	0xa425	-0.01619
217	0xac7f	-0.07025
218	0xb270	-0.2012
219	0x2944	0.04114
220	0x2086	0.008835
221	0xaffa	-0.12463
222	0xb090	-0.1426
223	0xafe9	-0.1236
224	0xb04a	-0.134
225	0xa547	-0.02061
226	0x2def	0.0927
227	0xa701	-0.02736
228	0x30f0	0.1543
229	0x2d06	0.0785
230	0x2dd3	0.091
231	0x2037	0.00823
232	0x2f27	0.11176
233	0x18e5	0.00239
234	0xaa1c	-0.04773
235	0x2fbb	0.1208
236	0x30c0	0.1484
237	0x289d	0.03604
238	0x2b3a	0.05646
239	0x3055	0.1354
240	0x2c25	0.06476
241	0x1d22	0.005013
242	0x2d21	0.08014
243	0x2e75	0.1009
244	0x2d0e	0.079
245	0x9fed	-0.00774
246	0x2e5a	0.09924
247	0x2f58	0.11475
248	0xadb8	-0.08936
249	0x2e9f	0.10345
250	0x2d60	0.084
251	0xadf4	-0.093
252	0xa442	-0.01663
253	0x3039	0.132
254	0x24f7	0.0194
255	0xa92b	-0.04037

model/tf.nn.convolution_1/convolution f2 [16, 4, 4, 6]
0	0x2a19	0.04764
1	0x3078	0.1396
2	0xac03	-0.0627
3	0xaa74	-0.0504
4	0xa52b	-0.02019
5	0xa251	-0.01234
6	0x2e74	0.1008
7	0x32c8	0.2119
8	0x2f7a	0.1168
9	0x1da3	0.005505
10	0x2b0d	0.05508
11	0x3027	0.1298
12	0x31ee	0.1853
13	0x3302	0.219
14	0xa571	-0.02126
15	0xac86	-0.0707
16	0xa5fd	-0.02339
17	0x2c1d	0.0643
18	0x2edd	0.10724
19	0xa6fd	-0.0273
20	0xaba1	-0.0596
21	0xad6d	-0.0848
22	0x2961	0.04202
23	0xafb9	-0.12067
24	0x2fc3	0.1213
25	0x31b9	0.1788
26	0xa711	-0.0276
27	0x2449	0.01674
28	0x2859	0.03397
29	0x2e2a	0.0963
30	0x2ad9	0.0535
31	0x2b81	0.05862
32	0x2949	0.0413
33	0x2cec	0.0769
34	0xae04	-0.094
35	0x31dc	0.1831
36	0x3100	0.1562
37	0x3318	0.2217
38	0x2afe	0.05463
39	0x2ee8	0.1079
40	0xa854	-0.0338
41	0x2ceb	0.07684
42	0xa184	-0.01077
43	0x28e4	0.0382
44	0xb048	-0.1338
45	0xa943	-0.0411
46	0xaf6a	-0.11584
47	0xae4f	-0.0986
48	0xa48e	-0.01779
49	0x32d9	0.214
50	0x2b44	0.05676
51	0x2884	0.03528
52	0x2f01	0.10944
53	0x327a	0.2024
54	0x30dd	0.152
55	0x2851	0.03372
56	0x3050	0.1348
57	0xa8ef	-0.03854
58	0xa891	-0.03568
59	0x2850	0.0337
60	0xadf4	-0.093
61	0x30bf	0.1483
62	0x29c4	0.04504
63	0x197f	0.002684
64	0x196c	0.002647
65	0x2b4b	0.05698
66	0xab3e	-0.05658
67	0x3073	0.139
68	0x2565	0.02107
69	0x2f7f	0.1171
70	0x2944	0.04114
71	0x3349	0.2277
72	0x30a2	0.1448
73	0x317f	0.1718
74	0x3166	0.1687
75	0x314d	0.1656
76	0xa1fb	-0.01168
77	0x322f	0.1932
78	0xa99e	-0.04388
79	0x33c2	0.2424
80	0x2ea1	0.1036
81	0x311f	0.16
82	0xa92a	-0.04034
83	0x3423	0.2585
84	0xacdc	-0.0759
85	0x30ed	0.1539
86	0x332a	0.2239
87	0x3299	0.2062
88	0x28c6	0.0373
89	0x345b	0.2722
90	0x9bab	-0.003744
91	0x320f	0.1893
92	0x32f3	0.2172
93	0x2d13	0.0793
94	0x3077	0.1395
95	0x34bd	0.2961
96	0x2d35	0.08136
97	0x2518	0.0199
98	0x3204	0.188
99	0x2c7b	0.07
100	0x2959	0.04178
101	0x3237	0.1942
102	0x2b89	0.05887
103	0x2916	0.03973
104	0x2b14	0.0553
105	0x21f4	0.01163
106	0x2f30	0.1123
107	0x2cc1	0.0743
108	0x2ee0	0.1074
109	0x2b26	0.05585
110	0x2929	0.0403
111	0x2c3e	0.0663
112	0x302c	0.1304
113	0x29c7	0.04514
114	0x9960	-0.002625
115	0x322d	0.193
116	0x2c4a	0.067
117	0xaa87	-0.051
118	0x22a7	0.01299
119	0x30fb	0.1556
120	0x32a8	0.208
121	0x2e25	0.096
122	0xadda	-0.09143
123	0x2f9a	0.1188
124	0x309c	0.144
125	0x288f	0.0356
126	0x3222	0.1917
127	0x26c3	0.02641
128	0x2a98	0.0515
129	0xa8fc	-0.03894
130	0x30be	0.1482
131	0xae6e	-0.10046
132	0x2a79	0.05057
133	0x2d03	0.0783
134	0x20bc	0.00925
135	0x9d90	-0.005432
136	0xa41f	-0.0161
137	0xad47	-0.08246
138	0x2388	0.01471
139	0x2c94	0.07153
140	0xa900	-0.03906
141	0xaba4	-0.0597
142	0xac23	-0.06464
143	0xadbb	-0.08954
144	0x330a	0.22
145	0x3041	0.1329
146	0x2f5c	0.115
147	0xaaf1	-0.05423
148	0xad01	-0.0782
149	0x2e5f	0.09955
150	0x32fe	0.2185
151	0x3099	0.1437
152	0x3011	0.1271
153	0x2ff4	0.12427
154	0xa6db	-0.02678
155	0x2ac4	0.05286
156	0xa782	-0.02933
157	0x29cf	0.04538
158	0x31f8	0.1865
159	0x32d4	0.2134
160	0x273c	0.02826
161	0x3405	0.2512
162	0xaabe	-0.05267
163	0x3120	0.1602
164	0x3377	0.2333
165	0x3074	0.1392
166	0x153f	0.001281
167	0x3470	0.2773
168	0xaba5	-0.05972
169	0x2d27	0.0805
170	0x2b65	0.05777
171	0x2f90	0.11816
172	0x2b90	0.05908
173	0x2b3c	0.05652
174	0x168e	0.0016
175	0x2ec6	0.10583
176	0x2be5	0.06168
177	0xa643	-0.02446
178	0x2e67	0.10004
179	0x328e	0.2048
180	0x331c	0.2222
181	0x31ca	0.1809
182	0x203f	0.00829
183	0x2a89	0.05106
184	0x2957	0.04172
185	0x2531	0.02028
186	0x335b	0.2299
187	0x30b1	0.1466
188	0x251b	0.01994
189	0xa952	-0.04156
190	0x2b01	0.05472
191	0x3061	0.1368
192	0x30f7	0.1552
193	0xac2e	-0.0653
194	0xb2d7	-0.2137
195	0x2484	0.01764
196	0x2d2c	0.0808
197	0xb01d	-0.1285
198	0x30f6	0.155
199	0xa95b	-0.04184
200	0xad9f	-0.0878
201	0x2984	0.0431
202	0x2718	0.02771
203	0xaa81	-0.0508
204	0x1cfc	0.004868
205	0x2cd0	0.0752
206	0x3104	0.1567
207	0x27d5	0.0306
208	0xa6ec	-0.02704
209	0x304f	0.1346
210	0x2c7b	0.07
211	0x3421	0.258
212	0x32ea	0.2161
213	0xabf9	-0.0623
214	0xa63f	-0.0244
215	0x32a0	0.207
216	0xaebc	-0.1052
217	0x2711	0.0276
218	0xa5b1	-0.02223
219	0x2197	0.01092
220	0xb116	-0.1589
221	0xb0b8	-0.1475
222	0x335f	0.2303
223	0x2d56	0.0834
224	0xacf7	-0.0776
225	0x2e57	0.09906
226	0x22b9	0.01313
227	0x2d04	0.07837
228	0x3078	0.1396
229	0x2fde	0.1229
230	0x2a84	0.0509
231	0x2c36	0.0658
232	0x3053	0.1351
233	0x2dac	0.0886
234	0x29fb	0.04672
235	0x3405	0.2512
236	0x30ea	0.1536
237	0x2dd9	0.0914
238	0x30f5	0.1549
239	0x31eb	0.1849
240	0xb0c8	-0.1494
241	0x2a42	0.0489
242	0x3008	0.126
243	0xacd2	-0.0753
244	0xb018	-0.1279
245	0x2904	0.03918
246	0x2992	0.04352
247	0x309d	0.1442
248	0xaa34	-0.04846
249	0xabac	-0.05994
250	0xb03d	-0.1324
251	0x305a	0.136
252	0x31ed	0.1852
253	0x9cb1	-0.00458
254	0xad0e	-0.079
255	0x9c51	-0.004215

model/18/AddV2/y f2 [54]
0	0xa83f	-0.03317
1	0x26c3	0.02641
2	0xad1f	-0.08
3	0x2d9f	0.0878
4	0x2c1d	0.0643
5	0x2d30	0.08105
6	0xa9ec	-0.04626
7	0x2a47	0.04904
8	0x2a98	0.0515
9	0xa873	-0.03476
10	0x223e	0.01219
11	0xabaf	-0.06003
12	0xa1b6	-0.011154
13	0x2ae1	0.05374
14	0x28e0	0.0381
15	0x2c60	0.06836
16	0x2e7a	0.1012
17	0x2942	0.04108
18	0xa695	-0.02571
19	0x29b2	0.0445
20	0x298a	0.04327
21	0x2d21	0.08014
22	0xa927	-0.04025
23	0xaf60	-0.11523
24	0x9e70	-0.006287
25	0xa82d	-0.03262
26	0x2a3d	0.04874
27	0x28bb	0.03696
28	0x28a7	0.03635
29	0x24b8	0.01843
30	0x2880	0.03516
31	0xa624	-0.02399
32	0xa96d	-0.0424
33	0x2b39	0.05643
34	0x289c	0.036
35	0xa902	-0.03912
36	0xacd2	-0.0753
37	0x2a11	0.0474
38	0xa341	-0.01417
39	0xaaff	-0.05466
40	0x2611	0.0237
41	0x2c04	0.06274
42	0xad34	-0.0813
43	0xada8	-0.0884
44	0x2ca4	0.0725
45	0xadef	-0.0927
46	0xa7c0	-0.03027
47	0xa80a	-0.03156
48	0xabbc	-0.06042
49	0x2841	0.03323
50	0x25dd	0.0229
51	0x2271	0.01258
52	0xac91	-0.07135
53	0xa39a	-0.01485

model/tf.__operators__.add/AddV2/y f2 [120]
0	0x9cac	-0.004562
1	0xa09d	-0.00901
2	0x2105	0.0098
3	0xa474	-0.0174
4	0xa557	-0.02086
5	0x9963	-0.00263
6	0xa357	-0.014336
7	0x99ba	-0.002796
8	0x26c7	0.02647
9	0x2938	0.04077
10	0x278a	0.02945
11	0xa5fd	-0.02339
12	0xa622	-0.02396
13	0x2225	0.012
14	0x26f2	0.02713
15	0xa019	-0.008
16	0x140a	0.000986
17	0xa30b	-0.013756
18	0xa4d4	-0.01886
19	0x2573	0.02129
20	0x1ea4	0.006485
21	0x1d69	0.005283
22	0x971b	-0.001735
23	0xa5ef	-0.02318
24	0x233e	0.014145
25	0xa864	-0.0343
26	0xa5d0	-0.0227
27	0x217b	0.010704
28	0x986b	-0.002157
29	0xa4cb	-0.01872
30	0xa3a6	-0.01494
31	0x29c1	0.04495
32	0xa196	-0.01091
33	0x91d5	-0.000712
34	0x9dd8	-0.005707
35	0xa547	-0.02061
36	0xa1db	-0.01144
37	0x9fa2	-0.007454
38	0x2447	0.01671
39	0xa1b2	-0.01112
40	0x1f0f	0.006893
41	0xa3d3	-0.01528
42	0xa60f	-0.02367
43	0xa608	-0.02356
44	0x1872	0.00217
45	0x9d20	-0.005005
46	0xa8cf	-0.03757
47	0x227a	0.01265
48	0xa0f0	-0.00964
49	0xa5bf	-0.02245
50	0x2afa	0.0545
51	0xa415	-0.01595
52	0x1fc4	0.007584
53	0x9a02	-0.002934
54	0xa6c2	-0.0264
55	0x249b	0.01799
56	0xa4f9	-0.01942
57	0xa488	-0.0177
58	0xa227	-0.01202
59	0x9819	-0.002
60	0x218f	0.01086
61	0xa37d	-0.014626
62	0x1e4d	0.006153
63	0x9894	-0.002235
64	0xa2af	-0.013054
65	0x1ed2	0.00666
66	0x2159	0.010445
67	0xa05d	-0.00852
68	0x20cb	0.00936
69	0x22bb	0.013145
70	0x1e38	0.006073
71	0x22c6	0.01323
72	0x9f3b	-0.00706
73	0xa627	-0.02403
74	0x20df	0.009514
75	0xa541	-0.02052
76	0x9a56	-0.003094
77	0x231f	0.01391
78	0xa4ec	-0.01923
79	0xa3a2	-0.01491
80	0x1801	0.001955
81	0x21a6	0.01103
82	0xaa41	-0.04886
83	0x2169	0.01057
84	0xa15a	-0.01045
85	0x2159	0.010445
86	0xa634	-0.02423
87	0x25d6	0.0228
88	0xa3e9	-0.01545
89	0x99b5	-0.002787
90	0x9e24	-0.005997
91	0xa520	-0.02002
92	0xa108	-0.00983
93	0xa789	-0.02943
94	0x20cd	0.00938
95	0xa523	-0.02007
96	0x2002	0.00783
97	0x9f74	-0.00728
98	0xa1aa	-0.01106
99	0x2c1f	0.0644
100	0x26be	0.02634
101	0xa61f	-0.02391
102	0xa34c	-0.01425
103	0xa43d	-0.01656
104	0x2142	0.01027
105	0x252f	0.02025
106	0x9025	-0.000506
107	0x1f14	0.006912
108	0x9f31	-0.007023
109	0xa116	-0.00993
110	0x22ea	0.013504
111	0x2751	0.02858
112	0xa546	-0.0206
113	0x1699	0.001611
114	0xa3b7	-0.01507
115	0x95f0	-0.00145
116	0x29d8	0.04565
117	0x9cc1	-0.004642
118	0x9ef1	-0.00678
119	0x1a2a	0.00301

model/tf.linalg.matmul/MatMul f2 [120, 3136]
0	0x1c9d	0.004505
1	0xa646	-0.0245
2	0x20ef	0.009636
3	0x291f	0.04
4	0x1f92	0.007393
5	0xa744	-0.02838
6	0xa788	-0.02942
7	0xa96d	-0.0424
8	0xa920	-0.04004
9	0xa8a7	-0.03635
10	0x233c	0.01413
11	0x2192	0.01088
12	0x2992	0.04352
13	0x29fe	0.0468
14	0x9963	-0.00263
15	0xa50c	-0.01971
16	0x1dea	0.005775
17	0x20f2	0.00966
18	0xaa6f	-0.05026
19	0xa8d3	-0.0377
20	0xa888	-0.0354
21	0xad39	-0.0816
22	0xacfb	-0.0778
23	0xaad0	-0.05322
24	0x2154	0.01041
25	0x29d6	0.0456
26	0x2ca8	0.07275
27	0x2673	0.02519
28	0xa40d	-0.01582
29	0x98b1	-0.00229
30	0xa5e3	-0.023
31	0x2482	0.01761
32	0xa917	-0.03976
33	0xa725	-0.02791
34	0xacab	-0.07294
35	0xa931	-0.04056
36	0xad25	-0.0804
37	0xa823	-0.03232
38	0x204a	0.00838
39	0xa8bd	-0.03702
40	0x20e9	0.00959
41	0xa80f	-0.0317
42	0x2bf1	0.06204
43	0x214e	0.01036
44	0x8e06	-0.0003676
45	0xa975	-0.04263
46	0xa9cb	-0.04526
47	0x21fc	0.01169
48	0xabe8	-0.06177
49	0xb049	-0.1339
50	0xb031	-0.131
51	0xad11	-0.07916
52	0x1d94	0.005447
53	0xab08	-0.05493
54	0xaba9	-0.05984
55	0x2477	0.01744
56	0x9a1f	-0.002989
57	0x2023	0.00808
58	0xa52b	-0.02019
59	0x2730	0.02808
60	0x2a39	0.0486
61	0x2d9d	0.0877
62	0xa125	-0.01005
63	0xa812	-0.0318
64	0xade6	-0.09216
65	0xa52e	-0.02023
66	0x2964	0.0421
67	0x2661	0.02492
68	0xa8e5	-0.03824
69	0xaa62	-0.04987
70	0xa1cb	-0.011314
71	0xa8c3	-0.0372
72	0x2ac9	0.053
73	0x2c4e	0.06726
74	0x2850	0.0337
75	0x26ad	0.02608
76	0xa273	-0.012596
77	0xa051	-0.00843
78	0x2829	0.0325
79	0x238b	0.01473
80	0x9cda	-0.004738
81	0x13a7	0.000934
82	0xab11	-0.0552
83	0xa705	-0.02742
84	0x20f7	0.0097
85	0x21d9	0.01142
86	0x286a	0.0345
87	0x2b49	0.05692
88	0x2610	0.02368
89	0xa5d7	-0.02281
90	0xa690	-0.02563
91	0xa94d	-0.0414
92	0x28a6	0.03632
93	0x28e3	0.03818
94	0x2ac0	0.05273
95	0x2986	0.04315
96	0x27a7	0.02989
97	0xa72a	-0.02798
98	0xa2b1	-0.01307
99	0x9320	-0.0008698
100	0x28fa	0.03888
101	0x2c9c	0.072
102	0x1e0f	0.005917
103	0xac0b	-0.0632
104	0xa75e	-0.02878
105	0x2268	0.01251
106	0x278e	0.02951
107	0x281b	0.03207
108	0x2961	0.04202
109	0x252e	0.02023
110	0x21ce	0.01134
111	0x2271	0.01258
112	0xae3a	-0.0973
113	0xaed0	-0.10645
114	0xa4b3	-0.01836
115	0x27b3	0.03008
116	0xa4bb	-0.01848
117	0xae14	-0.095
118	0xada9	-0.08844
119	0x213f	0.01025
120	0x218a	0.01082
121	0x85e6	-9e-05
122	0x257b	0.02141
123	0x2838	0.03296
124	0x212d	0.01011
125	0x1fa7	0.007473
126	0x2247	0.01226
127	0xa874	-0.0348
128	0x29a1	0.04398
129	0x17c7	0.001899
130	0x254e	0.02072
131	0xa8ac	-0.0365
132	0xad3b	-0.0817
133	0xa79d	-0.02974
134	0x9845	-0.002085
135	0x2d3f	0.082
136	0x26ec	0.02704
137	0x9756	-0.001791
138	0xaa0e	-0.0473
139	0x99dc	-0.002861
140	0x2d69	0.08453
141	0x2c98	0.0718
142	0x2bdf	0.0615
143	0x27a9	0.02992
144	0xa893	-0.03574
145	0xa92d	-0.04044
146	0xa690	-0.02563
147	0xac27	-0.0649
148	0xa178	-0.01068
149	0xab8a	-0.0589
150	0x2a73	0.05038
151	0x27d0	0.03052
152	0x2809	0.03152
153	0xaa81	-0.0508
154	0x9c52	-0.00422
155	0xaaec	-0.05408
156	0x25c3	0.0225
157	0xa5bf	-0.02245
158	0x9574	-0.001331
159	0xa952	-0.04156
160	0xaa26	-0.04803
161	0xa525	-0.0201
162	0x9980	-0.002686
163	0x2b53	0.05722
164	0xa114	-0.00992
165	0x9f1e	-0.00695
166	0x9fd1	-0.007633
167	0xa150	-0.010376
168	0x2d18	0.0796
169	0x2c8a	0.0709
170	0x2cb5	0.07355
171	0x1db6	0.005577
172	0xa615	-0.02376
173	0xa40d	-0.01582
174	0xa6de	-0.02682
175	0x169c	0.001614
176	0x2450	0.01685
177	0x2843	0.0333
178	0x25dd	0.0229
179	0x1e97	0.006435
180	0x2011	0.00794
181	0xa10b	-0.00985
182	0xa3c9	-0.015205
183	0x19e3	0.002874
184	0x1504	0.0012245
185	0xa4e6	-0.01913
186	0xa451	-0.01686
187	0x1ca7	0.004543
188	0xa133	-0.010155
189	0x9e28	-0.006012
190	0x2163	0.01052
191	0x1ad7	0.00334
192	0x1706	0.001715
193	0x1975	0.002665
194	0x9dfb	-0.00584
195	0xa3a4	-0.01492
196	0x9d9c	-0.005478
197	0x25a7	0.02208
198	0xa077	-0.00872
199	0x2098	0.00897
200	0xa2cd	-0.01328
201	0xa58f	-0.02171
202	0xaac8	-0.05298
203	0xa2fd	-0.01365
204	0x247d	0.01753
205	0x22dc	0.0134
206	0x9972	-0.002659
207	0x286a	0.0345
208	0x2791	0.02956
209	0x295b	0.04184
210	0x2375	0.014565
211	0xa62e	-0.02414
212	0x26db	0.02678
213	0x8dfa	-0.0003648
214	0xa4ec	-0.01923
215	0xa911	-0.03958
216	0xaba0	-0.05957
217	0xafa5	-0.11945
218	0xaf80	-0.1172
219	0x9fa1	-0.00745
220	0x9db9	-0.00559
221	0x28b0	0.03662
222	0x2883	0.03525
223	0x2830	0.0327
224	0xadd1	-0.0909
225	0xa865	-0.03433
226	0xa726	-0.02792
227	0x25c8	0.02258
228	0xa66a	-0.02505
229	0xa64b	-0.02458
230	0xad58	-0.0835
231	0xac37	-0.06586
232	0xa789	-0.02943
233	0xab77	-0.05832
234	0x2a24	0.04797
235	0x29f7	0.0466
236	0x9e2b	-0.006023
237	0x21c9	0.0113
238	0x2bf9	0.0623
239	0x24ae	0.01828
240	0x2971	0.0425
241	0x95a2	-0.001375
242	0xad1e	-0.07996
243	0xa1e7	-0.01153
244	0x9f32	-0.007027
245	0xab2c	-0.05603
246	0xabd4	-0.06116
247	0xa904	-0.03918
248	0xa4fa	-0.01944
249	0x9e07	-0.005886
250	0x2acf	0.0532
251	0x29cb	0.04526
252	0x2ad3	0.0533
253	0xa5dc	-0.02289
254	0x2708	0.02747
255	0x2763	0.02885

model/tf.linalg.matmul_1/MatMul f2 [54, 120]
0	0x2d1d	0.0799
1	0xad83	-0.0861
2	0x2128	0.01007
3	0xab09	-0.05496
4	0x2ba7	0.05978
5	0x2d5f	0.0839
6	0x248d	0.01778
7	0xad1c	-0.07983
8	0x2c1a	0.0641
9	0xa489	-0.01772
10	0xa894	-0.03577
11	0xa1f8	-0.01166
12	0xa75d	-0.02876
13	0xa994	-0.04358
14	0xa987	-0.04318
15	0x2a2b	0.0482
16	0x24a2	0.0181
17	0xa85d	-0.0341
18	0x9c07	-0.003933
19	0x25a3	0.02202
20	0xaa33	-0.04843
21	0x2cec	0.0769
22	0xac1d	-0.0643
23	0xa051	-0.00843
24	0xb04c	-0.1343
25	0xa7c5	-0.03035
26	0x27c8	0.0304
27	0xaad7	-0.05344
28	0x1bca	0.003803
29	0x2d1b	0.0798
30	0x2082	0.008804
31	0xac71	-0.0694
32	0x2ba8	0.0598
33	0x2a1b	0.0477
34	0x266f	0.02513
35	0x2d67	0.0844
36	0xa200	-0.01172
37	0x2a0e	0.0473
38	0xad55	-0.0833
39	0xadd5	-0.0911
40	0xa2c6	-0.01323
41	0x2337	0.01409
42	0x2aef	0.05417
43	0xac7d	-0.0701
44	0xac7c	-0.07007
45	0xac7c	-0.07007
46	0x2c88	0.0708
47	0x250d	0.01973
48	0x22c5	0.01322
49	0x99e3	-0.002874
50	0xa9a9	-0.04422
51	0xac0d	-0.0633
52	0x2c8c	0.07104
53	0xa8c0	-0.0371
54	0x2900	0.03906
55	0x2d54	0.08325
56	0xae4e	-0.0985
57	0xa208	-0.01178
58	0x0978	0.0001669
59	0x2c34	0.0657
60	0xae0b	-0.0944
61	0xa56b	-0.02116
62	0xad62	-0.0841
63	0x2d52	0.0831
64	0x2992	0.04352
65	0x2c8e	0.07117
66	0xac2f	-0.06537
67	0xa078	-0.00873
68	0xa5ad	-0.02217
69	0x2971	0.0425
70	0x2c78	0.0698
71	0xa5d7	-0.02281
72	0x234f	0.014275
73	0xa833	-0.0328
74	0x2a9e	0.0517
75	0xb08f	-0.1425
76	0x2b3d	0.05655
77	0x2d72	0.0851
78	0xaca2	-0.0724
79	0xa113	-0.00991
80	0xacc4	-0.07446
81	0x22fe	0.01366
82	0xad28	-0.08057
83	0x21c9	0.0113
84	0xad02	-0.07825
85	0x2aee	0.05414
86	0x22ea	0.013504
87	0x2bea	0.06183
88	0xaa9d	-0.05167
89	0xad9f	-0.0878
90	0x21d1	0.01136
91	0x2929	0.0403
92	0xa12a	-0.010086
93	0x2ea1	0.1036
94	0x23fb	0.01559
95	0xad8e	-0.0868
96	0x2bd4	0.06116
97	0xa3d4	-0.01529
98	0xade6	-0.09216
99	0xa949	-0.0413
100	0xace2	-0.0763
101	0x2941	0.04105
102	0x2a19	0.04764
103	0x2c05	0.0628
104	0x251b	0.01994
105	0xa257	-0.01238
106	0x2b06	0.05487
107	0xa9db	-0.04575
108	0xa093	-0.008934
109	0xa8c9	-0.03738
110	0x2c7c	0.07007
111	0x9c9b	-0.004498
112	0xaf22	-0.11145
113	0xad71	-0.085
114	0xab31	-0.05618
115	0x230d	0.01377
116	0x2edb	0.1071
117	0x206c	0.00864
118	0x2828	0.03247
119	0xac02	-0.0626
120	0xa7dc	-0.0307
121	0xadb8	-0.08936
122	0x2956	0.0417
123	0xad0a	-0.07874
124	0x274c	0.0285
125	0xa844	-0.03333
126	0x2a20	0.04785
127	0xb12c	-0.1616
128	0xa9ca	-0.04523
129	0x2977	0.0427
130	0xa26a	-0.01253
131	0xac92	-0.0714
132	0xad38	-0.08154
133	0xab95	-0.05923
134	0x2fc3	0.1213
135	0xaddf	-0.09174
136	0x25ba	0.02237
137	0xace4	-0.0764
138	0xa445	-0.01668
139	0xa898	-0.0359
140	0xa7dc	-0.0307
141	0x301d	0.1285
142	0x27e0	0.03076
143	0x20cb	0.00936
144	0xa35f	-0.0144
145	0xb0ec	-0.1538
146	0xa040	-0.0083
147	0x2f34	0.11255
148	0xa000	-0.007812
149	0xad25	-0.0804
150	0x2cb5	0.07355
151	0xaf73	-0.1164
152	0xa20e	-0.011826
153	0xac81	-0.0704
154	0x2c6b	0.06903
155	0xa92d	-0.04044
156	0x9c59	-0.004246
157	0x1439	0.001031
158	0x297e	0.0429
159	0xb076	-0.1394
160	0x168c	0.001598
161	0xac57	-0.0678
162	0x1822	0.002018
163	0xa8d7	-0.0378
164	0xab73	-0.0582
165	0x3099	0.1437
166	0xaa12	-0.04742
167	0x2c44	0.06665
168	0xb09f	-0.1444
169	0x242f	0.01634
170	0xa2c5	-0.01322
171	0x19d4	0.002846
172	0x25a8	0.0221
173	0xab35	-0.0563
174	0xad49	-0.0826
175	0x2faf	0.12006
176	0xb17b	-0.1713
177	0xad09	-0.0787
178	0xabd2	-0.0611
179	0x2b15	0.05533
180	0x270b	0.02751
181	0xb283	-0.2035
182	0x2a99	0.05154
183	0xad13	-0.0793
184	0x2d06	0.0785
185	0xaa01	-0.0469
186	0xad3e	-0.0819
187	0x2b32	0.0562
188	0xa039	-0.00825
189	0x2d9a	0.0875
190	0xb455	-0.2708
191	0x209a	0.00899
192	0x2d2c	0.0808
193	0xaf9e	-0.119
194	0xad91	-0.087
195	0xa99c	-0.04382
196	0x2ac9	0.053
197	0x2374	0.01456
198	0x2d08	0.0786
199	0x286c	0.03455
200	0x2c16	0.06384
201	0x2743	0.02837
202	0x2cd2	0.0753
203	0xadfe	-0.0936
204	0xa6e3	-0.0269
205	0x2cf9	0.0777
206	0xa31e	-0.0139
207	0x2c6b	0.06903
208	0x2c53	0.06757
209	0x2d5f	0.0839
210	0xb008	-0.126
211	0x2855	0.03384
212	0xad85	-0.08624
213	0xb281	-0.2032
214	0xa8ce	-0.03754
215	0xa844	-0.03333
216	0xa6fb	-0.02727
217	0x1e6e	0.00628
218	0xacdc	-0.0759
219	0xa97f	-0.04294
220	0xa10e	-0.00987
221	0xb302	-0.219
222	0xaf4c	-0.114
223	0x9f74	-0.00728
224	0x28a3	0.03622
225	0xa8fc	-0.03894
226	0xa3ab	-0.01498
227	0xa67b	-0.02531
228	0x220e	0.011826
229	0xa751	-0.02858
230	0x29ba	0.04474
231	0xb09b	-0.1439
232	0x2ddd	0.0916
233	0xad12	-0.0792
234	0x9edb	-0.006695
235	0xab73	-0.0582
236	0x2b0c	0.05505
237	0x2418	0.01599
238	0xa098	-0.00897
239	0xac1f	-0.0644
240	0xb1e4	-0.1841
241	0xa200	-0.01172
242	0x279c	0.02972
243	0xadb4	-0.0891
244	0x9fa5	-0.007465
245	0xadd2	-0.09094
246	0x9f17	-0.006924
247	0xaf21	-0.1114
248	0x29fe	0.0468
249	0x28d0	0.0376
250	0x2876	0.03485
251	0x2962	0.04205
252	0xacad	-0.07306
253	0xa8fb	-0.0389
254	0x2e09	0.0943
255	0x2686	0.02548
