Playing Card Classifier Model/model.tflite (tflite, 390080 bytes, 4 tensors)

model/tf.linalg.matmul_1/MatMul i1 [54, 120] scale=0.0029209673 zero_point=0
00000000: 1be3 03ed 141d 06e5 16fa f4fc f6f1 f110
00000010: 06f4 ff08 ef1a eafd d2f6 0aee 011b 03e8
00000020: 1410 091d fc10 e3e1 fb05 13e8 e8e8 1807
00000030: 05ff f1ea 18f3 0d1c defc 0016 e0f9 e31c
00000040: 0f18 eafd f80f 18f8 05f5 12cf 131d e7fd
00000050: e705 e404 e513 0515 eee2 040e fd23 05e2
00000060: 15fb e0f2 e60e 1015 07fc 13f0 fdf3 18fe
00000070: dae3 ed05 2503 0beb f5e1 0ee5 0af5 10c9
00000080: f10f fce8 e4ec 2ae1 08e6 faf4 f52c 0b03
00000090: fbcb fd27 fde4 19d8 fce8 18f2 ff00 0fd0
000000a0: 01e9 01f3 ec31 f017 cf06 fb01 08ed e429
000000b0: c5e5 eb13 09ba 12e5 1bf0 e413 fd1e a303
000000c0: 1cd7 e2f1 1205 1b0c 160a 1ae0 f71b fb18
000000d0: 171d d50c e2ba f3f5 f702 e6f1 fdb5 d9fe
000000e0: 0cf3 fbf7 04f6 0fcf 1fe5 feec 1305 fdea
000000f0: c1fc 0ae1 fde1 feda 100d 0c0e e7f3 2009
0.07886612 -0.08470805 0.008762902 -0.05549838 0.058419347 0.08470805 0.017525803 -0.07886612
0.06426128 -0.017525803 -0.035051607 -0.011683869 -0.029209673 -0.04381451 -0.04381451 0.046735477
0.017525803 -0.035051607 -0.0029209673 0.023367738 -0.049656443 0.07594515 -0.06426128 -0.008762902
-0.1343645 -0.029209673 0.029209673 -0.05257741 0.0029209673 0.07886612 0.008762902 -0.07010321
0.058419347 0.046735477 0.026288705 0.08470805 -0.011683869 0.046735477 -0.08470805 -0.09054998
-0.014604837 0.014604837 0.05549838 -0.07010321 -0.07010321 -0.07010321 0.07010321 0.020446772
0.014604837 -0.0029209673 -0.04381451 -0.06426128 0.07010321 -0.037972573 0.037972573 0.08178709
-0.09931289 -0.011683869 0.0 0.06426128 -0.09347095 -0.020446772 -0.08470805 0.08178709
0.04381451 0.07010321 -0.06426128 -0.008762902 -0.023367738 0.04381451 0.07010321 -0.023367738
0.014604837 -0.03213064 0.05257741 -0.1431274 0.05549838 0.08470805 -0.07302418 -0.008762902
-0.07302418 0.014604837 -0.08178709 0.011683869 -0.07886612 0.05549838 0.014604837 0.061340313
-0.05257741 -0.08762902 0.011683869 0.040893544 -0.008762902 0.10223386 0.014604837 -0.08762902
0.061340313 -0.014604837 -0.09347095 -0.040893544 -0.07594515 0.040893544 0.046735477 0.061340313
0.020446772 -0.011683869 0.05549838 -0.046735477 -0.008762902 -0.037972573 0.07010321 -0.0058419346
-0.11099676 -0.08470805 -0.05549838 0.014604837 0.10807579 0.008762902 0.03213064 -0.061340313
-0.03213064 -0.09054998 0.040893544 -0.07886612 0.029209673 -0.03213064 0.046735477 -0.1606532
-0.04381451 0.04381451 -0.011683869 -0.07010321 -0.08178709 -0.058419347 0.12268063 -0.09054998
0.023367738 -0.07594515 -0.017525803 -0.035051607 -0.03213064 0.12852256 0.03213064 0.008762902
-0.014604837 -0.15481126 -0.008762902 0.11391772 -0.008762902 -0.08178709 0.07302418 -0.11683869
-0.011683869 -0.07010321 0.07010321 -0.040893544 -0.0029209673 0.0 0.04381451 -0.14020643
0.0029209673 -0.06718225 0.0029209673 -0.037972573 -0.058419347 0.1431274 -0.046735477 0.06718225
-0.1431274 0.017525803 -0.014604837 0.0029209673 0.023367738 -0.05549838 -0.08178709 0.11975966
-0.17233707 -0.07886612 -0.061340313 0.05549838 0.026288705 -0.20446771 0.05257741 -0.07886612
0.07886612 -0.046735477 -0.08178709 0.05549838 -0.008762902 0.08762902 -0.27164996 0.008762902
0.08178709 -0.11975966 -0.08762902 -0.04381451 0.05257741 0.014604837 0.07886612 0.035051607
0.06426128 0.029209673 0.07594515 -0.09347095 -0.026288705 0.07886612 -0.014604837 0.07010321
0.06718225 0.08470805 -0.12560159 0.035051607 -0.08762902 -0.20446771 -0.037972573 -0.03213064
-0.026288705 0.0058419346 -0.07594515 -0.04381451 -0.008762902 -0.21907255 -0.11391772 -0.0058419346
0.035051607 -0.037972573 -0.014604837 -0.026288705 0.011683869 -0.029209673 0.04381451 -0.1431274
0.09054998 -0.07886612 -0.0058419346 -0.058419347 0.05549838 0.014604837 -0.008762902 -0.06426128
-0.18402094 -0.011683869 0.029209673 -0.09054998 -0.008762902 -0.09054998 -0.0058419346 -0.11099676
0.046735477 0.037972573 0.035051607 0.040893544 -0.07302418 -0.037972573 0.09347095 0.026288705

model/tf.linalg.matmul/MatMul i1 [120, 3136] scale=0.0015586546 zero_point=0
00000000: 03f0 061a 05ee ede5 e6e9 0907 1c1e fef3
00000010: 0406 e0e8 e9cc cede 071d 2f10 f6ff f10b
00000020: e6ee d1e6 cceb 05e8 06ec 2807 00e5 e307
00000030: d8aa accd 03dd da0b fe05 f312 1f38 faec
00000040: c5f3 1b10 e7e0 f9e8 222b 1611 f8fb 1509
00000050: fd01 ddee 0607 1625 0ff1 f0e5 1718 221c
00000060: 13ee f8ff 192e 04d7 ee08 1315 1b0d 0708
00000070: c2bc f413 f4c3 c707 0700 0e15 0605 08ea
00000080: 1c01 0de9 cced ff35 11ff e2fe 362e 2713
00000090: e9e6 f0d6 f9da 2014 14df fddd 0ef2 ffe5
000000a0: e1f3 fe25 fafc fbf9 332e 2f04 f1f6 ef01
000000b0: 0b15 0f04 05fa f602 01f4 f503 f9fc 0702
000000c0: 0102 fcf6 fc0e fa06 f7f2 def7 0b09 fe16
000000d0: 131b 09f1 1100 f4e7 dab3 b5fb fc18 1715
000000e0: c6ea ee0e f0f0 cad6 eddb 1f1e fc07 280c
000000f0: 1bff cdf9 fbdc d9e7 f4fc 221d 22f1 1213
0.004675964 -0.024938473 0.009351928 0.04052502 0.007793273 -0.028055783 -0.029614437 -0.042083673
-0.04052502 -0.035849057 0.014027892 0.010910582 0.043642327 0.04675964 -0.0031173092 -0.02026251
0.0062346184 0.009351928 -0.049876947 -0.03740771 -0.035849057 -0.08105004 -0.07793273 -0.052994255
0.010910582 0.045200985 0.07325677 0.024938473 -0.015586546 -0.0015586546 -0.02337982 0.0171452
-0.04052502 -0.028055783 -0.07325677 -0.04052502 -0.08105004 -0.032731745 0.007793273 -0.03740771
0.009351928 -0.031173091 0.062346183 0.010910582 0.0 -0.042083673 -0.045200985 0.010910582
-0.062346183 -0.13404429 -0.13092698 -0.079491384 0.004675964 -0.05455291 -0.059228875 0.0171452
-0.0031173092 0.007793273 -0.02026251 0.028055783 0.048318293 0.087284654 -0.009351928 -0.031173091
-0.091960624 -0.02026251 0.042083673 0.024938473 -0.038966365 -0.049876947 -0.010910582 -0.03740771
0.052994255 0.067022145 0.0342904 0.026497127 -0.012469237 -0.007793273 0.032731745 0.014027892
-0.004675964 0.0015586546 -0.05455291 -0.028055783 0.009351928 0.010910582 0.0342904 0.05767022
0.02337982 -0.02337982 -0.024938473 -0.042083673 0.035849057 0.03740771 0.052994255 0.043642327
0.029614437 -0.028055783 -0.012469237 -0.0015586546 0.038966365 0.071698114 0.0062346184 -0.06390484
-0.028055783 0.012469237 0.029614437 0.032731745 0.042083673 0.02026251 0.010910582 0.012469237
-0.096636586 -0.10598851 -0.018703856 0.029614437 -0.018703856 -0.09507793 -0.08884331 0.010910582
0.010910582 0.0 0.021821164 0.032731745 0.009351928 0.007793273 0.012469237 -0.0342904
0.043642327 0.0015586546 0.02026251 -0.035849057 -0.08105004 -0.029614437 -0.0015586546 0.08260869
0.026497127 -0.0015586546 -0.04675964 -0.0031173092 0.08416735 0.071698114 0.06078753 0.029614437
-0.035849057 -0.04052502 -0.024938473 -0.06546349 -0.010910582 -0.059228875 0.049876947 0.031173091
0.031173091 -0.0514356 -0.004675964 -0.05455291 0.021821164 -0.021821164 -0.0015586546 -0.042083673
-0.048318293 -0.02026251 -0.0031173092 0.05767022 -0.009351928 -0.0062346184 -0.007793273 -0.010910582
0.079491384 0.071698114 0.07325677 0.0062346184 -0.02337982 -0.015586546 -0.026497127 0.0015586546
0.0171452 0.032731745 0.02337982 0.0062346184 0.007793273 -0.009351928 -0.015586546 0.0031173092
0.0015586546 -0.018703856 -0.0171452 0.004675964 -0.010910582 -0.0062346184 0.010910582 0.0031173092
0.0015586546 0.0031173092 -0.0062346184 -0.015586546 -0.0062346184 0.021821164 -0.009351928 0.009351928
-0.014027892 -0.021821164 -0.052994255 -0.014027892 0.0171452 0.014027892 -0.0031173092 0.0342904
0.029614437 0.042083673 0.014027892 -0.02337982 0.026497127 0.0 -0.018703856 -0.038966365
-0.059228875 -0.1200164 -0.116899095 -0.007793273 -0.0062346184 0.03740771 0.035849057 0.032731745
-0.09040197 -0.0342904 -0.028055783 0.021821164 -0.024938473 -0.024938473 -0.08416735 -0.06546349
-0.029614437 -0.05767022 0.048318293 0.04675964 -0.0062346184 0.010910582 0.062346183 0.018703856
0.042083673 -0.0015586546 -0.079491384 -0.010910582 -0.007793273 -0.056111567 -0.06078753 -0.038966365
-0.018703856 -0.0062346184 0.052994255 0.045200985 0.052994255 -0.02337982 0.028055783 0.029614437

model/tf.nn.convolution_1/convolution i1 [16, 4, 4, 6]
00000000: 143c e5ea f7fb 2b5b 3202 1838 4f5e f7e2
00000010: f61c 2ef4 e6dc 12cc 344d f407 0f29 1719
00000020: 1221 d84f 435f 172e f221 fb10 c7ee ced6
00000030: f85c 180f 2f57 410e 3aef f10e d840 1301
00000040: 0118 e83c 0932 1262 3e4a 4847 fb53 ed68
00000050: 2c45 ef6f df42 6058 1075 fe51 5d22 3c7f
00000060: 2509 5620 1359 1b12 1905 3322 311a 121e
00000070: 3c15 ff58 1fe9 0647 5f2c d636 4210 580c
00000080: 18ee 44d2 1724 04fe f9da 0721 eee5 e2d7
00000090: 653d 35e7 dc2e 6442 3a39 f418 f315 5562
000000a0: 0d73 e849 6b40 017f e525 1a36 1b1a 0130
000000b0: 1cf5 2e5e 6653 0417 1309 6943 09ed 193f
000000c0: 3be7 af07 1fcf 3bf0 df10 0bed 021d 3b0c
000000d0: f633 1b62 52e8 f74f d80a f804 c4c8 5720
000000e0: e326 051e 352f 1319 3322 125f 3a23 3b46
000000f0: c713 30e3 cf0f 1037 eee9 ce34 46fe e2fe
20 60 -27 -22 -9 -5 43 91
50 2 24 56 79 94 -9 -30
-10 28 46 -12 -26 -36 18 -52
52 77 -12 7 15 41 23 25
18 33 -40 79 67 95 23 46
-14 33 -5 16 -57 -18 -50 -42
-8 92 24 15 47 87 65 14
58 -17 -15 14 -40 64 19 1
1 24 -24 60 9 50 18 98
62 74 72 71 -5 83 -19 104
44 69 -17 111 -33 66 96 88
16 117 -2 81 93 34 60 127
37 9 86 32 19 89 27 18
25 5 51 34 49 26 18 30
60 21 -1 88 31 -23 6 71
95 44 -42 54 66 16 88 12
24 -18 68 -46 23 36 4 -2
-7 -38 7 33 -18 -27 -30 -41
101 61 53 -25 -36 46 100 66
58 57 -12 24 -13 21 85 98
13 115 -24 73 107 64 1 127
-27 37 26 54 27 26 1 48
28 -11 46 94 102 83 4 23
19 9 105 67 9 -19 25 63
59 -25 -81 7 31 -49 59 -16
-33 16 11 -19 2 29 59 12
-10 51 27 98 82 -24 -9 79
-40 10 -8 4 -60 -56 87 32
-29 38 5 30 53 47 19 25
51 34 18 95 58 35 59 70
-57 19 48 -29 -49 15 16 55
-18 -23 -50 52 70 -2 -30 -2

model/tf.nn.convolution/convolution i1 [6, 5, 5, 3]
00000000: b8f8 15ff 29c1 d5b1 b0c8 be81 aaf6 9c32
00000010: d8c8 0642 f2df caaa 0397 a9c2 bcdb 4d12
00000020: 0936 48f6 441d 4714 300a dbc6 f5f9 5363
00000030: 4d01 37f0 fbdd ee13 39ed 05b3 2c08 d7f7
00000040: 5133 5ee3 6144 222d 291a 3b0c 5349 d528
00000050: 56f3 b8ed 1ebf 4672 06d7 266b d1e8 c253
00000060: 2540 d559 feb8 5925 12e0 f2ac 8d97 3122
00000070: 2339 1902 1111 2cff b8de 89e2 9481 ef40
00000080: e3c6 1348 2143 f788 e120 d12c aaca 9613
00000090: ee43 d912 1f03 e72b 6322 2b6c 4654 3b6a
000000a0: 4a03 fd1f 36f1 35f5 6f2a f72f 4a29 ef22
000000b0: 0e2d 54fc 3f2c 1e02 fce1 3e46 c32e bf0f
000000c0: e6b8 dd16 eedb d4c6 b213 d8c7 f09b acdb
000000d0: 0581 01bf d9b2 08ea f6d4 821a 06b2 a6b2
000000e0: acf3 3aef 6132 3905 4602 e24c 5e17 2455
000000f0: 2903 3340 32fb 3f48 c841 35c5 f653 0ce7
-72 -8 21 -1 41 -63 -43 -79
-80 -56 -66 -127 -86 -10 -100 50
-40 -56 6 66 -14 -33 -54 -86
3 -105 -87 -62 -68 -37 77 18
9 54 72 -10 68 29 71 20
48 10 -37 -58 -11 -7 83 99
77 1 55 -16 -5 -35 -18 19
57 -19 5 -77 44 8 -41 -9
81 51 94 -29 97 68 34 45
41 26 59 12 83 73 -43 40
86 -13 -72 -19 30 -65 70 114
6 -41 38 107 -47 -24 -62 83
37 64 -43 89 -2 -72 89 37
18 -32 -14 -84 -115 -105 49 34
35 57 25 2 17 17 44 -1
-72 -34 -119 -30 -108 -127 -17 64
-29 -58 19 72 33 67 -9 -120
-31 32 -47 44 -86 -54 -106 19
-18 67 -39 18 31 3 -25 43
99 34 43 108 70 84 59 106
74 3 -3 31 54 -15 53 -11
111 42 -9 47 74 41 -17 34
14 45 84 -4 63 44 30 2
-4 -31 62 70 -61 46 -65 15
-26 -72 -35 22 -18 -37 -44 -58
-78 19 -40 -57 -16 -101 -84 -37
5 -127 1 -65 -39 -78 8 -22
-10 -44 -126 26 6 -78 -90 -78
-84 -13 58 -17 97 50 57 5
70 2 -30 76 94 23 36 85
41 3 51 64 50 -5 63 72
-56 65 53 -59 -10 83 12 -25
