Playing Card Classifier Model/model.tflite (tflite, 390080 bytes, 4 tensors)

model/tf.linalg.matmul_1/MatMul i1 [54, 120] scale=0.0023345721 zero_point=0
0.07470631 0.046691444 0.081710026 -0.028014865 0.0023345721 -0.04435687 -0.046691444 -0.02101115
0.0023345721 0.07937545 0.0 -0.028014865 -0.028014865 -0.07937545 0.07470631 0.018676577
0.0420223 0.10739032 -0.15408176 0.030349437 0.016342005 0.09805203 0.035018582 -0.030349437
-0.06536802 0.070037164 0.011672861 -0.12139775 -0.025680294 -0.018676577 0.070037164 -0.025680294
-0.070037164 -0.10739032 0.0840446 0.12840147 -0.13540518 0.02101115 -0.007003716 0.081710026
-0.072371736 -0.03268401 -0.011672861 -0.072371736 0.05136059 0.07470631 0.028014865 0.035018582
-0.10272118 -0.04435687 0.028014865 -0.0023345721 -0.016342005 -0.091048315 -0.04435687 -0.08871374
-0.17742749 0.07470631 -0.016342005 -0.14474347 -0.046691444 -0.07704088 0.035018582 0.05602973
0.08637917 -0.10272118 0.08871374 0.09338289 0.016342005 -0.046691444 -0.070037164 0.06770259
0.058364302 0.018676577 -0.05602973 -0.018676577 -0.07470631 0.046691444 0.07470631 0.04435687
0.0023345721 0.02101115 -0.011672861 0.0840446 0.05602973 0.0046691443 -0.06770259 -0.060698874
-0.04435687 -0.018676577 0.009338289 -0.030349437 0.05602973 -0.09571746 0.037353154 -0.091048315
-0.05369516 -0.06536802 0.05602973 0.035018582 -0.10739032 0.0046691443 -0.081710026 -0.037353154
0.07704088 -0.14007433 0.072371736 -0.0840446 0.035018582 -0.014007432 -0.037353154 -0.0046691443
0.011672861 -0.028014865 -0.016342005 -0.025680294 -0.04435687 0.09805203 0.028014865 0.035018582
-0.13307062 0.04435687 -0.07937545 0.06303345 0.028014865 0.0840446 -0.06536802 -0.06536802
-0.13540518 -0.072371736 -0.09338289 -0.11205946 -0.081710026 0.014007432 0.07704088 -0.037353154
0.06303345 0.030349437 -0.11439403 -0.16342005 -0.035018582 0.049026016 0.03268401 -0.109724894
0.13073604 0.014007432 0.025680294 -0.08871374 0.018676577 -0.05136059 0.05602973 0.091048315
0.023345722 -0.02101115 -0.0046691443 -0.04435687 0.009338289 -0.05136059 -0.028014865 0.05136059
-0.091048315 -0.10739032 -0.05136059 0.05136059 -0.11205946 0.07704088 0.018676577 -0.0840446
0.1260669 -0.011672861 0.016342005 -0.08871374 -0.2101115 -0.26614124 0.09338289 0.08871374
-0.10272118 0.07704088 0.070037164 -0.05136059 0.025680294 0.07704088 -0.058364302 0.07937545
0.091048315 0.08871374 0.09805203 -0.0023345721 -0.09338289 0.05602973 0.0023345721 -0.016342005
-0.091048315 0.0840446 -0.06303345 -0.09338289 -0.007003716 0.05369516 -0.016342005 0.030349437
0.028014865 -0.039687727 -0.023345722 0.03268401 0.035018582 0.081710026 0.039687727 -0.035018582
0.016342005 -0.07704088 -0.0840446 -0.07937545 -0.05602973 -0.037353154 0.072371736 -0.15174718
0.070037164 -0.007003716 -0.05136059 -0.030349437 -0.014007432 0.0046691443 -0.0046691443 0.016342005
-0.18910034 -0.11439403 -0.023345722 -0.0023345721 0.06303345 -0.08637917 -0.09338289 -0.06303345
-0.20777692 0.025680294 0.072371736 0.060698874 -0.10505575 0.0 0.03268401 0.08871374
0.058364302 0.0 -0.08637917 -0.039687727 0.10739032 -0.08637917 -0.060698874 0.06303345
-0.0840446 0.06536802 -0.0840446 -0.028014865 0.007003716 -0.10505575 0.11439403 0.10505575
00000000: 2014 23f4 01ed ecf7 0122 00f4 f4de 2008
00000010: 122e be0d 072a 0ff3 e41e 05cc f5f8 1ef5
00000020: e2d2 2437 c609 fd23 e1f2 fbe1 1620 0c0f
00000030: d4ed 0cff f9d9 edda b420 f9c2 ecdf 0f18
00000040: 25d4 2628 07ec e21d 1908 e8f8 e014 2013
00000050: 0109 fb24 1802 e3e6 edf8 04f3 18d7 10d9
00000060: e9e4 180f d202 ddf0 21c4 1fdc 0ffa f0fe
00000070: 05f4 f9f5 ed2a 0c0f c713 de1b 0c24 e4e4
00000080: c6e1 d8d0 dd06 21f0 1b0d cfba f115 0ed1
00000090: 3806 0bda 08ea 1827 0af7 feed 04ea f416
000000a0: d9d2 ea16 d021 08dc 36fb 07da a68e 2826
000000b0: d421 1eea 0b21 e722 2726 2aff d818 01f9
000000c0: d924 e5d8 fd17 f90d 0cef f60e 0f23 11f1
000000d0: 07df dcde e8f0 1fbf 1efd eaf3 fa02 fe07
000000e0: afcf f6ff 1bdb d8e5 a70b 1f1a d300 0e26
000000f0: 1900 dbef 2edb e61b dc1c dcf4 03d3 312d

model/tf.linalg.matmul/MatMul i1 [120, 3136] scale=0.0016155888 zero_point=0
0.01292471 0.006462355 0.01292471 -0.030696187 0.006462355 0.046852075 -0.014540299 -0.032311775
0.029080598 0.016155887 0.006462355 0.01292471 0.042005308 0.0048467666 0.008077944 -0.016155887
0.04038972 0.0032311776 0.0016155888 0.02746501 0.0016155888 0.014540299 0.048467662 0.014540299
-0.11955357 0.022618243 -0.038774133 0.019387066 0.006462355 0.030696187 0.032311775 -0.0016155888
0.024233831 0.05169884 0.01292471 0.0048467666 0.08885738 -0.024233831 -0.035542954 -0.011309122
-0.02746501 0.059776787 0.008077944 -0.02746501 -0.024233831 -0.06623914 -0.033927366 -0.05331443
-0.017771477 0.046852075 0.030696187 -0.011309122 0.033927366 -0.035542954 -0.045236487 -0.043620896
0.0032311776 0.10501327 -0.0016155888 -0.04038972 -0.019387066 -0.048467662 0.033927366 0.022618243
0.009693533 0.032311775 0.011309122 -0.05169884 -0.05169884 -0.02746501 0.0016155888 0.08077944
-0.0016155888 -0.024233831 -0.035542954 -0.024233831 0.069470316 0.046852075 0.12116916 0.03715854
0.01292471 -0.029080598 -0.035542954 0.0016155888 -0.009693533 0.058161195 -0.02584942 -0.077548265
-0.059776787 -0.02584942 0.06462355 0.033927366 0.0727015 0.058161195 0.024233831 -0.016155887
-0.05331443 -0.042005308 -0.0016155888 0.056545608 0.048467662 -0.017771477 -0.069470316 -0.01292471
0.02746501 0.008077944 0.058161195 0.06623914 0.0 0.032311775 -0.05493002 -0.042005308
0.021002654 0.032311775 0.02746501 -0.021002654 -0.033927366 0.063007966 0.113091215 0.0
0.021002654 0.030696187 -0.029080598 -0.014540299 -0.06785473 -0.02584942 0.009693533 0.0016155888
0.05169884 -0.006462355 -0.042005308 -0.019387066 -0.016155887 -0.061392374 0.090472974 0.02746501
0.008077944 0.016155887 -0.014540299 -0.02584942 0.008077944 0.04038972 0.024233831 0.008077944
-0.0048467666 -0.046852075 -0.019387066 0.069470316 -0.016155887 0.029080598 0.04038972 -0.03715854
-0.022618243 -0.024233831 0.019387066 0.077548265 0.011309122 0.014540299 0.01292471 -0.111475624
0.03715854 0.006462355 -0.032311775 0.014540299 0.038774133 0.006462355 -0.009693533 -0.030696187
0.0016155888 -0.0032311776 -0.0032311776 -0.011309122 0.0 -0.04038972 -0.009693533 0.024233831
-0.042005308 0.038774133 0.058161195 -0.011309122 -0.01292471 -0.06623914 0.008077944 0.0048467666
0.045236487 0.0016155888 0.011309122 -0.019387066 0.033927366 0.059776787 0.006462355 0.050083254
0.029080598 0.022618243 0.017771477 0.05493002 0.0016155888 -0.0048467666 0.019387066 0.024233831
0.0048467666 0.009693533 -0.0048467666 0.014540299 0.009693533 0.014540299 0.033927366 0.030696187
0.019387066 0.04038972 0.014540299 0.0016155888 0.019387066 -0.024233831 0.0032311776 -0.024233831
0.014540299 -0.01292471 0.0 0.048467662 0.029080598 0.032311775 0.019387066 -0.0016155888
0.058161195 -0.011309122 0.019387066 0.05493002 0.042005308 0.029080598 -0.019387066 -0.029080598
0.030696187 0.011309122 -0.021002654 0.02584942 -0.0048467666 -0.035542954 0.02584942 -0.033927366
-0.032311775 -0.06623914 0.017771477 0.048467662 -0.016155887 -0.011309122 0.008077944 -0.08077944
-0.006462355 -0.03715854 0.0016155888 0.030696187 0.050083254 -0.042005308 -0.02584942 -0.08885738
00000000: 0804 08ed 041d f7ec 120a 0408 1a03 05f6
00000010: 1902 0111 0109 1e09 b60e e80c 0413 14ff
00000020: 0f20 0803 37f1 eaf9 ef25 05ef f1d7 ebdf
00000030: f51d 13f9 15ea e4e5 0241 ffe7 f4e2 150e
00000040: 0614 07e0 e0ef 0132 fff1 eaf1 2b1d 4b17
00000050: 08ee ea01 fa24 f0d0 dbf0 2815 2d24 0ff6
00000060: dfe6 ff23 1ef5 d5f8 1105 2429 0014 dee6
00000070: 0d14 11f3 eb27 4600 0d13 eef7 d6f0 0601
00000080: 20fc e6f4 f6da 3811 050a f7f0 0519 0f05
00000090: fde3 f42b f612 19e9 f2f1 0c30 0709 08bb
000000a0: 1704 ec09 1804 faed 01fe fef9 00e7 fa0f
000000b0: e618 24f9 f8d7 0503 1c01 07f4 1525 041f
000000c0: 120e 0b22 01fd 0c0f 0306 fd09 0609 1513
000000d0: 0c19 0901 0cf1 02f1 09f8 001e 1214 0cff
000000e0: 24f9 0c22 1a12 f4ee 1307 f310 fdea 10eb
000000f0: ecd7 0b1e f6f9 05ce fce9 0113 1fe6 f0c9

model/tf.nn.convolution_1/convolution i1 [16, 4, 4, 6]
24 65 -7 -17 69 -2 -49 123
45 -41 11 -47 -26 91 20 67
-66 -78 13 51 59 36 -87 -59
-84 59 -41 -61 23 48 -71 1
-76 -13 -8 72 -4 -28 -5 4
84 35 -32 62 26 26 73 -12
-82 122 -61 -45 19 40 -81 37
13 -51 103 29 55 -81 68 35
78 85 69 33 9 14 48 26
45 39 -68 -48 127 91 11 44
-30 -26 111 30 -9 -50 66 54
5 -18 26 -17 72 54 26 57
-29 111 -69 7 87 108 -24 33
-74 -49 38 27 5 -45 -69 12
21 -2 15 -65 9 9 59 -14
51 68 28 -12 88 92 37 -27
-58 8 94 34 21 -41 5 -9
127 23 44 50 28 -7 -9 18
68 -24 58 42 86 14 9 -17
60 58 111 49 0 -35 32 14
50 63 24 35 -45 38 32 76
36 5 -12 -34 -7 29 32 65
-11 45 -10 58 -29 63 54 -9
17 -14 18 55 -34 -10 49 -7
52 80 60 29 34 22 33 112
-16 -38 -13 69 15 69 -37 -54
12 105 -91 117 -63 -90 -9 -17
46 77 52 -7 -24 28 24 97
-1 0 56 89 30 71 -76 8
82 127 -9 80 11 11 110 103
37 31 -4 17 -42 0 15 11
42 46 69 44 62 62 -16 27
00000000: 1841 f9ef 45fe cf7b 2dd7 0bd1 e65b 1443
00000010: beb2 0d33 3b24 a9c5 ac3b d7c3 1730 b901
00000020: b4f3 f848 fce4 fb04 5423 e03e 1a1a 49f4
00000030: ae7a c3d3 1328 af25 0dcd 671d 37af 4423
00000040: 4e55 4521 090e 301a 2d27 bcd0 7f5b 0b2c
00000050: e2e6 6f1e f7ce 4236 05ee 1aef 4836 1a39
00000060: e36f bb07 576c e821 b6cf 261b 05d3 bb0c
00000070: 15fe 0fbf 0909 3bf2 3344 1cf4 585c 25e5
00000080: c608 5e22 15d7 05f7 7f17 2c32 1cf9 f712
00000090: 44e8 3a2a 560e 09ef 3c3a 6f31 00dd 200e
000000a0: 323f 1823 d326 204c 2405 f4de f91d 2041
000000b0: f52d f63a e33f 36f7 11f2 1237 def6 31f9
000000c0: 3450 3c1d 2216 2170 f0da f345 0f45 dbca
000000d0: 0c69 a575 c1a6 f7ef 2e4d 34f9 e81c 1861
000000e0: ff00 3859 1e47 b408 527f f750 0b0b 6e67
000000f0: 251f fc11 d600 0f0b 2a2e 452c 3e3e f01b

model/tf.nn.convolution/convolution i1 [6, 5, 5, 3]
27 -42 -41 -16 24 55 0 -10
22 65 -75 -67 60 1 -58 78
-5 9 66 -15 -58 77 -16 11
-19 -54 -50 -43 -47 -93 31 73
99 -18 4 5 74 45 -18 101
62 16 -1 62 49 69 90 119
118 35 63 40 119 87 28 -16
-34 70 -24 64 114 67 85 64
103 78 127 113 113 54 111 27
92 -34 26 83 123 123 22 25
-21 -29 77 32 49 -58 -16 57
-36 -71 123 107 106 -19 -16 75
-23 17 -82 -20 39 24 31 -86
26 17 57 -34 -48 -2 -52 -37
-68 1 -25 -74 -47 0 -114 -52
38 53 -52 -66 -66 -17 -58 19
-94 -88 -113 -29 13 -5 -29 87
72 -30 50 -6 42 -58 -103 -19
-1 -63 -79 -72 -60 -127 30 72
93 125 54 124 79 69 84 113
87 62 103 106 93 101 70 53
73 78 119 122 109 92 49 74
103 69 106 127 85 109 43 119
104 79 47 104 54 57 71 126
117 58 95 47 57 92 51 116
78 87 114 94 59 70 125 111
95 120 33 53 78 122 90 113
62 117 124 113 91 97 87 68
62 43 4 93 65 59 92 22
43 111 6 89 57 75 3 72
37 17 42 50 23 61 67 72
83 35 111 69 21 48 80 102
00000000: 1bd6 d7f0 1837 00f6 1641 b5bd 3c01 c64e
00000010: fb09 42f1 c64d f00b edca ced5 d1a3 1f49
00000020: 63ee 0405 4a2d ee65 3e10 ff3e 3145 5a77
00000030: 7623 3f28 7757 1cf0 de46 e840 7243 5540
00000040: 674e 7f71 7136 6f1b 5cde 1a53 7b7b 1619
00000050: ebe3 4d20 31c6 f039 dcb9 7b6b 6aed f04b
00000060: e911 aeec 2718 1faa 1a11 39de d0fe ccdb
00000070: bc01 e7b6 d100 8ecc 2635 ccbe beef c613
00000080: a2a8 8fe3 0dfb e357 48e2 32fa 2ac6 99ed
00000090: ffc1 b1b8 c481 1e48 5d7d 367c 4f45 5471
000000a0: 573e 676a 5d65 4635 494e 777a 6d5c 314a
000000b0: 6745 6a7f 556d 2b77 684f 2f68 3639 477e
000000c0: 753a 5f2f 395c 3374 4e57 725e 3b46 7d6f
000000d0: 5f78 2135 4e7a 5a71 3e75 7c71 5b61 5744
000000e0: 3e2b 045d 413b 5c16 2b6f 0659 394b 0348
000000f0: 2511 2a32 173d 4348 5323 6f45 1530 5066
