Playing Card Classifier Model/model.tflite (tflite, 390080 bytes, 4 tensors)

model/tf.linalg.matmul_1/MatMul i1 [54, 120] scale=0.0036137602 zero_point=0
0	0xfe	-0.0072275205
1	0x0a	0.036137603
2	0x13	0.068661444
3	0x0b	0.039751362
4	0xed	-0.068661444
5	0xf3	-0.046978883
6	0x17	0.08311649
7	0xe9	-0.08311649
8	0xe0	-0.11564033
9	0xfb	-0.018068802
10	0x26	0.13732289
11	0x07	0.025296321
12	0xf4	-0.04336512
13	0x0e	0.050592642
14	0xea	-0.079502724
15	0x18	0.08673024
16	0x0d	0.046978883
17	0xf9	-0.025296321
18	0x14	0.07227521
19	0x05	0.018068802
20	0x09	0.03252384
21	0xf6	-0.036137603
22	0x08	0.028910082
23	0x02	0.0072275205
24	0x06	0.02168256
25	0x09	0.03252384
26	0x13	0.068661444
27	0xf9	-0.025296321
28	0x0f	0.054206405
29	0x1a	0.09395777
30	0x0c	0.04336512
31	0xf9	-0.025296321
32	0x08	0.028910082
33	0x08	0.028910082
34	0x25	0.13370913
35	0x05	0.018068802
36	0xf0	-0.057820164
37	0x0e	0.050592642
38	0xff	-0.0036137602
39	0x0e	0.050592642
40	0x10	0.057820164
41	0x00	0.0
42	0xea	-0.079502724
43	0x0d	0.046978883
44	0x13	0.068661444
45	0xe7	-0.090344004
46	0xf4	-0.04336512
47	0x07	0.025296321
48	0xf5	-0.039751362
49	0xe7	-0.090344004
50	0x09	0.03252384
51	0xf6	-0.036137603
52	0xfb	-0.018068802
53	0xea	-0.079502724
54	0xff	-0.0036137602
55	0xef	-0.061433922
56	0x0e	0.050592642
57	0x08	0.028910082
58	0x09	0.03252384
59	0x10	0.057820164
60	0x02	0.0072275205
61	0xf3	-0.046978883
62	0x14	0.07227521
63	0xde	-0.122867845
64	0xf5	-0.039751362
65	0xe7	-0.090344004
66	0x10	0.057820164
67	0xf9	-0.025296321
68	0x0e	0.050592642
69	0x0a	0.036137603
70	0xf0	-0.057820164
71	0xfd	-0.01084128
72	0xf7	-0.03252384
73	0xe8	-0.08673024
74	0xee	-0.06504768
75	0xf3	-0.046978883
76	0xda	-0.13732289
77	0x09	0.03252384
78	0x0a	0.036137603
79	0x07	0.025296321
80	0xfb	-0.018068802
81	0xe6	-0.09395777
82	0xf5	-0.039751362
83	0x0d	0.046978883
84	0x00	0.0
85	0x14	0.07227521
86	0x0d	0.046978883
87	0xe6	-0.09395777
88	0xea	-0.079502724
89	0xe1	-0.112026565
90	0xe9	-0.08311649
91	0xe8	-0.08673024
92	0xf5	-0.039751362
93	0xf9	-0.025296321
94	0xdd	-0.12648161
95	0x03	0.01084128
96	0xf6	-0.036137603
97	0x02	0.0072275205
98	0xe2	-0.10841281
99	0xf7	-0.03252384
100	0xf8	-0.028910082
101	0xf3	-0.046978883
102	0xf6	-0.036137603
103	0x0b	0.039751362
104	0xea	-0.079502724
105	0xee	-0.06504768
106	0x04	0.014455041
107	0xef	-0.061433922
108	0x14	0.07227521
109	0x10	0.057820164
110	0x10	0.057820164
111	0xff	-0.0036137602
112	0xe8	-0.08673024
113	0xe6	-0.09395777
114	0xee	-0.06504768
115	0x15	0.07588896
116	0xfd	-0.01084128
117	0x04	0.014455041
118	0xe4	-0.101185285
119	0x0a	0.036137603
120	0xf7	-0.03252384
121	0xf7	-0.03252384
122	0xfb	-0.018068802
123	0xf5	-0.039751362
124	0xf8	-0.028910082
125	0xf9	-0.025296321
126	0xe7	-0.090344004
127	0x17	0.08311649
128	0xc6	-0.2095981
129	0xfb	-0.018068802
130	0x0e	0.050592642
131	0xe8	-0.08673024
132	0x09	0.03252384
133	0x0f	0.054206405
134	0x06	0.02168256
135	0xd7	-0.14816417
136	0xba	-0.25296322
137	0xd8	-0.14455041
138	0xff	-0.0036137602
139	0x11	0.061433922
140	0x0a	0.036137603
141	0x1c	0.101185285
142	0x19	0.090344004
143	0x05	0.018068802
144	0xfb	-0.018068802
145	0x17	0.08311649
146	0xf7	-0.03252384
147	0x17	0.08311649
148	0x0e	0.050592642
149	0x20	0.11564033
150	0x0b	0.039751362
151	0x11	0.061433922
152	0x17	0.08311649
153	0xf6	-0.036137603
154	0x16	0.079502724
155	0x04	0.014455041
156	0x0c	0.04336512
157	0xef	-0.061433922
158	0x03	0.01084128
159	0x02	0.0072275205
160	0xf0	-0.057820164
161	0xe8	-0.08673024
162	0xea	-0.079502724
163	0x03	0.01084128
164	0xef	-0.061433922
165	0xe8	-0.08673024
166	0xf1	-0.054206405
167	0xf2	-0.050592642
168	0xf6	-0.036137603
169	0xee	-0.06504768
170	0xeb	-0.07588896
171	0x11	0.061433922
172	0xfc	-0.014455041
173	0x05	0.018068802
174	0xf5	-0.039751362
175	0x16	0.079502724
176	0xfb	-0.018068802
177	0x1e	0.10841281
178	0xbf	-0.23489441
179	0x10	0.057820164
180	0xd0	-0.17346048
181	0xea	-0.079502724
182	0xfd	-0.01084128
183	0xe0	-0.11564033
184	0x0d	0.046978883
185	0xee	-0.06504768
186	0x03	0.01084128
187	0xca	-0.19514306
188	0x01	0.0036137602
189	0x06	0.02168256
190	0x08	0.028910082
191	0x01	0.0036137602
192	0x00	0.0
193	0xf9	-0.025296321
194	0xb7	-0.2638045
195	0x0e	0.050592642
196	0xf3	-0.046978883
197	0xf4	-0.04336512
198	0x08	0.028910082
199	0xeb	-0.07588896
200	0x0a	0.036137603
201	0x0c	0.04336512
202	0xdf	-0.11925409
203	0xfb	-0.018068802
204	0xf1	-0.054206405
205	0xe4	-0.101185285
206	0xf5	-0.039751362
207	0xf6	-0.036137603
208	0x0c	0.04336512
209	0xf4	-0.04336512
210	0xee	-0.06504768
211	0xeb	-0.07588896
212	0x15	0.07588896
213	0xf1	-0.054206405
214	0xf6	-0.036137603
215	0x0b	0.039751362
216	0xfc	-0.014455041
217	0xff	-0.0036137602
218	0x11	0.061433922
219	0xf4	-0.04336512
220	0x09	0.03252384
221	0x0f	0.054206405
222	0x07	0.025296321
223	0x0d	0.046978883
224	0x11	0.061433922
225	0xd0	-0.17346048
226	0x0b	0.039751362
227	0x0c	0.04336512
228	0xfb	-0.018068802
229	0xff	-0.0036137602
230	0x0b	0.039751362
231	0xf9	-0.025296321
232	0xea	-0.079502724
233	0x09	0.03252384
234	0x12	0.06504768
235	0x0e	0.050592642
236	0x0a	0.036137603
237	0x26	0.13732289
238	0x09	0.03252384
239	0x10	0.057820164
240	0x12	0.06504768
241	0xff	-0.0036137602
242	0x16	0.079502724
243	0xf1	-0.054206405
244	0xfb	-0.018068802
245	0xe9	-0.08311649
246	0x07	0.025296321
247	0x0a	0.036137603
248	0xf5	-0.039751362
249	0xf0	-0.057820164
250	0x00	0.0
251	0x08	0.028910082
252	0xec	-0.07227521
253	0xe6	-0.09395777
254	0x01	0.0036137602
255	0xe7	-0.090344004

model/tf.linalg.matmul/MatMul i1 [120, 3136] scale=0.002426346 zero_point=0
0	0x04	0.009705384
1	0xfa	-0.014558077
2	0x03	0.0072790384
3	0x03	0.0072790384
4	0xf7	-0.021837115
5	0xf9	-0.016984422
6	0xff	-0.002426346
7	0xfe	-0.004852692
8	0xfd	-0.0072790384
9	0x00	0.0
10	0x01	0.002426346
11	0xfa	-0.014558077
12	0x05	0.01213173
13	0xfa	-0.014558077
14	0x02	0.004852692
15	0x00	0.0
16	0xf9	-0.016984422
17	0xfb	-0.01213173
18	0xf8	-0.019410769
19	0x03	0.0072790384
20	0xfd	-0.0072790384
21	0xfb	-0.01213173
22	0x02	0.004852692
23	0xfd	-0.0072790384
24	0x02	0.004852692
25	0xfe	-0.004852692
26	0x02	0.004852692
27	0xfc	-0.009705384
28	0x05	0.01213173
29	0xfd	-0.0072790384
30	0x04	0.009705384
31	0x01	0.002426346
32	0x04	0.009705384
33	0xff	-0.002426346
34	0xf9	-0.016984422
35	0x05	0.01213173
36	0xfe	-0.004852692
37	0x02	0.004852692
38	0xf7	-0.021837115
39	0xfa	-0.014558077
40	0xfd	-0.0072790384
41	0x05	0.01213173
42	0x02	0.004852692
43	0x00	0.0
44	0xf8	-0.019410769
45	0x02	0.004852692
46	0x04	0.009705384
47	0x04	0.009705384
48	0xf9	-0.016984422
49	0xfb	-0.01213173
50	0x03	0.0072790384
51	0xfb	-0.01213173
52	0xff	-0.002426346
53	0xfb	-0.01213173
54	0xfd	-0.0072790384
55	0x05	0.01213173
56	0x00	0.0
57	0x01	0.002426346
58	0x01	0.002426346
59	0xf6	-0.02426346
60	0x04	0.009705384
61	0xf7	-0.021837115
62	0xfa	-0.014558077
63	0xfd	-0.0072790384
64	0xfb	-0.01213173
65	0x02	0.004852692
66	0xff	-0.002426346
67	0xf8	-0.019410769
68	0x01	0.002426346
69	0xff	-0.002426346
70	0x03	0.0072790384
71	0xfa	-0.014558077
72	0xf9	-0.016984422
73	0xfa	-0.014558077
74	0xfb	-0.01213173
75	0xff	-0.002426346
76	0xfd	-0.0072790384
77	0x06	0.014558077
78	0x04	0.009705384
79	0x04	0.009705384
80	0xfe	-0.004852692
81	0xfe	-0.004852692
82	0x04	0.009705384
83	0x04	0.009705384
84	0xfa	-0.014558077
85	0xfe	-0.004852692
86	0xf6	-0.02426346
87	0xfa	-0.014558077
88	0x02	0.004852692
89	0x00	0.0
90	0xfa	-0.014558077
91	0x06	0.014558077
92	0x04	0.009705384
93	0x02	0.004852692
94	0x05	0.01213173
95	0xf8	-0.019410769
96	0xfb	-0.01213173
97	0xff	-0.002426346
98	0x03	0.0072790384
99	0x01	0.002426346
100	0x03	0.0072790384
101	0xf8	-0.019410769
102	0x03	0.0072790384
103	0xfa	-0.014558077
104	0xfd	-0.0072790384
105	0xfc	-0.009705384
106	0x02	0.004852692
107	0x04	0.009705384
108	0xff	-0.002426346
109	0x02	0.004852692
110	0x03	0.0072790384
111	0xfb	-0.01213173
112	0xf9	-0.016984422
113	0x00	0.0
114	0xfd	-0.0072790384
115	0x01	0.002426346
116	0xfd	-0.0072790384
117	0x04	0.009705384
118	0x05	0.01213173
119	0x01	0.002426346
120	0xfa	-0.014558077
121	0x05	0.01213173
122	0x04	0.009705384
123	0xfb	-0.01213173
124	0xfe	-0.004852692
125	0xfc	-0.009705384
126	0x04	0.009705384
127	0xfa	-0.014558077
128	0x00	0.0
129	0x02	0.004852692
130	0x01	0.002426346
131	0xfe	-0.004852692
132	0x04	0.009705384
133	0xf9	-0.016984422
134	0xf9	-0.016984422
135	0xfa	-0.014558077
136	0xfa	-0.014558077
137	0x00	0.0
138	0x01	0.002426346
139	0xfc	-0.009705384
140	0xfc	-0.009705384
141	0xf6	-0.02426346
142	0xff	-0.002426346
143	0x03	0.0072790384
144	0x04	0.009705384
145	0x04	0.009705384
146	0xfd	-0.0072790384
147	0xf7	-0.021837115
148	0x04	0.009705384
149	0xf7	-0.021837115
150	0xf7	-0.021837115
151	0x01	0.002426346
152	0xfe	-0.004852692
153	0x03	0.0072790384
154	0xfe	-0.004852692
155	0xf6	-0.02426346
156	0x05	0.01213173
157	0x04	0.009705384
158	0x03	0.0072790384
159	0x00	0.0
160	0x05	0.01213173
161	0x04	0.009705384
162	0xff	-0.002426346
163	0xf9	-0.016984422
164	0xf7	-0.021837115
165	0xfc	-0.009705384
166	0xfb	-0.01213173
167	0xf9	-0.016984422
168	0x02	0.004852692
169	0xf8	-0.019410769
170	0xf9	-0.016984422
171	0x03	0.0072790384
172	0x03	0.0072790384
173	0xfc	-0.009705384
174	0xfb	-0.01213173
175	0x02	0.004852692
176	0xfd	-0.0072790384
177	0x04	0.009705384
178	0x02	0.004852692
179	0xfe	-0.004852692
180	0xfa	-0.014558077
181	0x02	0.004852692
182	0xfe	-0.004852692
183	0x02	0.004852692
184	0x02	0.004852692
185	0xfe	-0.004852692
186	0x02	0.004852692
187	0xfd	-0.0072790384
188	0x01	0.002426346
189	0xf7	-0.021837115
190	0xfe	-0.004852692
191	0x04	0.009705384
192	0xfd	-0.0072790384
193	0xf7	-0.021837115
194	0xf7	-0.021837115
195	0xfe	-0.004852692
196	0xf9	-0.016984422
197	0x03	0.0072790384
198	0x04	0.009705384
199	0x05	0.01213173
200	0xf9	-0.016984422
201	0xfe	-0.004852692
202	0xfe	-0.004852692
203	0x04	0.009705384
204	0x02	0.004852692
205	0xfd	-0.0072790384
206	0x05	0.01213173
207	0xff	-0.002426346
208	0x02	0.004852692
209	0x02	0.004852692
210	0x03	0.0072790384
211	0x08	0.019410769
212	0x04	0.009705384
213	0xfc	-0.009705384
214	0x01	0.002426346
215	0x01	0.002426346
216	0x00	0.0
217	0xff	-0.002426346
218	0xfa	-0.014558077
219	0xf8	-0.019410769
220	0xfc	-0.009705384
221	0x00	0.0
222	0x06	0.014558077
223	0x01	0.002426346
224	0xfd	-0.0072790384
225	0x01	0.002426346
226	0x05	0.01213173
227	0x03	0.0072790384
228	0xf9	-0.016984422
229	0xf7	-0.021837115
230	0xf8	-0.019410769
231	0xfc	-0.009705384
232	0x02	0.004852692
233	0xfe	-0.004852692
234	0xfe	-0.004852692
235	0x03	0.0072790384
236	0xfe	-0.004852692
237	0xfa	-0.014558077
238	0x05	0.01213173
239	0x05	0.01213173
240	0x05	0.01213173
241	0x00	0.0
242	0xfc	-0.009705384
243	0x03	0.0072790384
244	0x01	0.002426346
245	0xff	-0.002426346
246	0xfb	-0.01213173
247	0xf8	-0.019410769
248	0x06	0.014558077
249	0xf7	-0.021837115
250	0x07	0.016984422
251	0x01	0.002426346
252	0x00	0.0
253	0x07	0.016984422
254	0x03	0.0072790384
255	0xfa	-0.014558077

model/tf.nn.convolution_1/convolution i1 [16, 4, 4, 6]
0	0x6d	109
1	0x60	96
2	0x7f	127
3	0x5e	94
4	0xb7	-73
5	0x19	25
6	0x5a	90
7	0x33	51
8	0x56	86
9	0x46	70
10	0x88	-120
11	0x09	9
12	0xfd	-3
13	0xe5	-27
14	0xe3	-29
15	0xca	-54
16	0xec	-20
17	0x07	7
18	0x04	4
19	0x99	-103
20	0xd9	-39
21	0xe4	-28
22	0x06	6
23	0xcf	-49
24	0xf4	-12
25	0x0e	14
26	0x25	37
27	0x17	23
28	0xb3	-77
29	0x19	25
30	0x16	22
31	0xff	-1
32	0x3a	58
33	0x21	33
34	0x92	-110
35	0x02	2
36	0xca	-54
37	0x98	-104
38	0xa8	-88
39	0xf5	-11
40	0xb2	-78
41	0x0e	14
42	0x20	32
43	0xad	-83
44	0xdf	-33
45	0xd9	-39
46	0x28	40
47	0xec	-20
48	0x42	66
49	0xe9	-23
50	0x18	24
51	0x4b	75
52	0x07	7
53	0x06	6
54	0x19	25
55	0xc5	-59
56	0xe5	-27
57	0xca	-54
58	0xbd	-67
59	0x1c	28
60	0x05	5
61	0xb8	-72
62	0xec	-20
63	0xf2	-14
64	0xe8	-24
65	0x33	51
66	0xcf	-49
67	0xf2	-14
68	0xd1	-47
69	0xbb	-69
70	0x1e	30
71	0xf8	-8
72	0x08	8
73	0xe4	-28
74	0xca	-54
75	0xca	-54
76	0xe3	-29
77	0x04	4
78	0x0e	14
79	0xd0	-48
80	0xe5	-27
81	0xba	-70
82	0xdb	-37
83	0x03	3
84	0xf3	-13
85	0x24	36
86	0xb7	-73
87	0x06	6
88	0x41	65
89	0xf9	-7
90	0xf3	-13
91	0x31	49
92	0xfb	-5
93	0xc3	-61
94	0x55	85
95	0x17	23
96	0x47	71
97	0x23	35
98	0x37	55
99	0x0b	11
100	0x17	23
101	0xfe	-2
102	0x16	22
103	0x39	57
104	0xea	-22
105	0x07	7
106	0x06	6
107	0x1c	28
108	0x03	3
109	0x35	53
110	0x13	19
111	0xe0	-32
112	0x01	1
113	0x06	6
114	0x00	0
115	0xe2	-30
116	0x22	34
117	0xe5	-27
118	0xf7	-9
119	0xe5	-27
120	0x4c	76
121	0x71	113
122	0x4b	75
123	0x13	19
124	0x3b	59
125	0x27	39
126	0x2c	44
127	0x72	114
128	0x1c	28
129	0x36	54
130	0x43	67
131	0x01	1
132	0x2a	42
133	0x18	24
134	0x1c	28
135	0x12	18
136	0xeb	-21
137	0x09	9
138	0xe2	-30
139	0x27	39
140	0xfa	-6
141	0xff	-1
142	0x1f	31
143	0x14	20
144	0x58	88
145	0x34	52
146	0x73	115
147	0x13	19
148	0x3e	62
149	0x1c	28
150	0x61	97
151	0x61	97
152	0x47	71
153	0x14	20
154	0x30	48
155	0xf3	-13
156	0x63	99
157	0x3f	63
158	0x35	53
159	0x01	1
160	0x09	9
161	0x21	33
162	0x3b	59
163	0x4c	76
164	0x52	82
165	0x52	82
166	0x0d	13
167	0x14	20
168	0x57	87
169	0x31	49
170	0x45	69
171	0x27	39
172	0x47	71
173	0xdd	-35
174	0x68	104
175	0x31	49
176	0x5d	93
177	0x4a	74
178	0x25	37
179	0xec	-20
180	0x49	73
181	0x71	113
182	0x7f	127
183	0x66	102
184	0x1a	26
185	0xed	-19
186	0x1b	27
187	0x11	17
188	0x43	67
189	0x3f	63
190	0x1f	31
191	0xfa	-6
192	0xe7	-25
193	0xd2	-46
194	0xeb	-21
195	0x0c	12
196	0xea	-22
197	0xfc	-4
198	0x01	1
199	0xd0	-48
200	0xe7	-25
201	0x14	20
202	0x40	64
203	0x09	9
204	0xe0	-32
205	0xe6	-26
206	0xbc	-68
207	0xf4	-12
208	0x76	118
209	0xf0	-16
210	0xeb	-21
211	0x43	67
212	0xce	-50
213	0xd9	-39
214	0x66	102
215	0x13	19
216	0xcc	-52
217	0xd2	-46
218	0xc6	-58
219	0xdf	-33
220	0x09	9
221	0x0c	12
222	0xd6	-42
223	0xeb	-21
224	0xd0	-48
225	0xd5	-43
226	0x77	119
227	0xf5	-11
228	0xce	-50
229	0x0c	12
230	0xca	-54
231	0xf1	-15
232	0x7f	127
233	0x05	5
234	0xed	-19
235	0x3d	61
236	0xd5	-43
237	0xfa	-6
238	0x54	84
239	0xfe	-2
240	0xd8	-40
241	0x0b	11
242	0xe6	-26
243	0xe4	-28
244	0x58	88
245	0x0c	12
246	0x07	7
247	0x35	53
248	0xe3	-29
249	0x22	34
250	0x66	102
251	0xfd	-3
252	0xe9	-23
253	0x2a	42
254	0xee	-18
255	0x12	18

model/tf.nn.convolution/convolution i1 [6, 5, 5, 3]
0	0xaa	-86
1	0xde	-34
2	0xe7	-25
3	0xc6	-58
4	0x33	51
5	0x2e	46
6	0xe6	-26
7	0x09	9
8	0xdf	-33
9	0x64	100
10	0x34	52
11	0x66	102
12	0x6a	106
13	0x65	101
14	0xf7	-9
15	0xe1	-31
16	0xd5	-43
17	0xd7	-41
18	0xab	-85
19	0xe1	-31
20	0x04	4
21	0x27	39
22	0x2d	45
23	0xbe	-66
24	0x35	53
25	0x24	36
26	0x15	21
27	0x6b	107
28	0x3b	59
29	0xfd	-3
30	0x87	-121
31	0x81	-127
32	0xe8	-24
33	0x8c	-116
34	0xbb	-69
35	0x8b	-117
36	0xa1	-95
37	0xcb	-53
38	0xfa	-6
39	0x19	25
40	0x0a	10
41	0x1f	31
42	0x6b	107
43	0x64	100
44	0x5a	90
45	0xfc	-4
46	0x91	-111
47	0xdf	-33
48	0xad	-83
49	0xd7	-41
50	0xaf	-81
51	0xbe	-66
52	0xd3	-45
53	0xae	-82
54	0x59	89
55	0x24	36
56	0x35	53
57	0x0d	13
58	0x51	81
59	0x5a	90
60	0xcb	-53
61	0xfb	-5
62	0x85	-123
63	0xa1	-95
64	0xc3	-61
65	0xb9	-71
66	0xe4	-28
67	0xc8	-56
68	0x29	41
69	0x10	16
70	0x31	49
71	0x5a	90
72	0x66	102
73	0x66	102
74	0x6d	109
75	0x03	3
76	0x33	51
77	0xfb	-5
78	0x10	16
79	0x43	67
80	0x00	0
81	0x18	24
82	0x30	48
83	0x0e	14
84	0x31	49
85	0xf7	-9
86	0x75	117
87	0x14	20
88	0x14	20
89	0x7a	122
90	0x0b	11
91	0xaf	-81
92	0x02	2
93	0x28	40
94	0x36	54
95	0x2e	46
96	0xd0	-48
97	0xfa	-6
98	0xd4	-44
99	0x5d	93
100	0xe7	-25
101	0x4f	79
102	0x13	19
103	0xec	-20
104	0x18	24
105	0xb2	-78
106	0xd3	-45
107	0xa4	-92
108	0x08	8
109	0x2c	44
110	0xe4	-28
111	0xa9	-87
112	0xdc	-36
113	0xc2	-62
114	0x3e	62
115	0x4d	77
116	0x5b	91
117	0x0c	12
118	0x20	32
119	0x30	48
120	0xe3	-29
121	0xb9	-71
122	0xba	-70
123	0x07	7
124	0xd0	-48
125	0xad	-83
126	0x92	-110
127	0xcf	-49
128	0xc5	-59
129	0xee	-18
130	0x37	55
131	0x17	23
132	0x44	68
133	0x72	114
134	0x7a	122
135	0x8c	-116
136	0xe0	-32
137	0xce	-50
138	0xff	-1
139	0x92	-110
140	0x81	-127
141	0xd0	-48
142	0xa3	-93
143	0xc9	-55
144	0x2a	42
145	0xfd	-3
146	0xcd	-51
147	0xf7	-9
148	0x0c	12
149	0x3b	59
150	0x17	23
151	0x9a	-102
152	0x22	34
153	0xbb	-69
154	0x1f	31
155	0xb2	-78
156	0x31	49
157	0xd4	-44
158	0xf4	-12
159	0xed	-19
160	0x49	73
161	0xef	-17
162	0x10	16
163	0x68	104
164	0x41	65
165	0xd2	-46
166	0xe5	-27
167	0x8f	-113
168	0xe9	-23
169	0x98	-104
170	0xa5	-91
171	0xe6	-26
172	0xd5	-43
173	0xd2	-46
174	0x19	25
175	0xf9	-7
176	0x04	4
177	0x6d	109
178	0x44	68
179	0x1d	29
180	0xed	-19
181	0x87	-121
182	0xa8	-88
183	0xeb	-21
184	0xca	-54
185	0xdf	-33
186	0xbc	-68
187	0x03	3
188	0x33	51
189	0xdf	-33
190	0x5c	92
191	0x2d	45
192	0x57	87
193	0x73	115
194	0x6a	106
195	0xfa	-6
196	0x9a	-102
197	0xb9	-71
198	0xf3	-13
199	0xc8	-56
200	0x02	2
201	0x06	6
202	0xd9	-39
203	0xeb	-21
204	0x42	66
205	0x45	69
206	0x06	6
207	0x1f	31
208	0x67	103
209	0x30	48
210	0xa4	-92
211	0xdc	-36
212	0xad	-83
213	0xa9	-87
214	0xf5	-11
215	0x19	25
216	0x18	24
217	0x1e	30
218	0x0a	10
219	0x34	52
220	0x12	18
221	0x03	3
222	0x2d	45
223	0x43	67
224	0x7f	127
225	0xe4	-28
226	0xb8	-72
227	0x8f	-113
228	0x81	-127
229	0x1c	28
230	0x9b	-101
231	0xc2	-62
232	0x0f	15
233	0x01	1
234	0xeb	-21
235	0x14	20
236	0xba	-70
237	0xd4	-44
238	0x45	69
239	0x1a	26
240	0x0f	15
241	0x0d	13
242	0xdd	-35
243	0xa1	-95
244	0x88	-120
245	0xe6	-26
246	0xb9	-71
247	0xf4	-12
248	0xba	-70
249	0xcf	-49
250	0xad	-83
251	0x39	57
252	0xc4	-60
253	0xe5	-27
254	0xef	-17
255	0xf4	-12
