Playing Card Classifier Model/model.tflite (tflite, 390080 bytes, 4 tensors)

model/tf.linalg.matmul_1/MatMul i1 [54, 120] scale=0.0027010627 zero_point=0
-0.14315632 0.05132019 0.056722317 -0.0054021254 0.09183613 0.013505314 -0.08643401 0.0
0.0054021254 -0.124248885 -0.10534145 -0.064825505 -0.16476482 0.067526564 0.10264038 0.054021254
0.0027010627 -0.043217003 0.013505314 0.10534145 -0.056722317 -0.10804251 -0.027010627 -0.08373295
-0.08373295 -0.08643401 -0.08373295 -0.032412753 0.078330815 -0.08373295 0.0027010627 0.037814878
-0.016206376 0.056722317 -0.016206376 0.010804251 0.05132019 -0.08103188 0.05942338 0.05132019
0.078330815 -0.0027010627 0.05132019 -0.07022763 -0.21338396 -0.032412753 0.013505314 0.054021254
-0.010804251 0.09183613 -0.08643401 -0.05942338 -0.064825505 -0.0027010627 0.075629756 0.008103188
-0.0027010627 0.10534145 -0.016206376 -0.067526564 -0.027010627 0.05132019 -0.02971169 -0.075629756
-0.0729287 -0.12965101 -0.018907439 -0.08373295 0.032412753 0.067526564 -0.08643401 -0.037814878
-0.037814878 0.067526564 -0.0729287 -0.05942338 0.008103188 -0.09723826 -0.035113815 -0.043217003
-0.018907439 -0.08373295 -0.0054021254 0.07022763 0.054021254 0.0 0.04051594 -0.064825505
0.064825505 -0.08643401 0.037814878 -0.1161457 0.027010627 0.027010627 0.035113815 0.0054021254
0.054021254 -0.010804251 0.045918066 0.018907439 0.043217003 0.12694995 -0.062124442 -0.021608502
-0.11884676 -0.0027010627 -0.037814878 -0.08373295 0.064825505 -0.0027010627 0.05132019 -0.0054021254
0.0027010627 0.08373295 0.013505314 -0.027010627 -0.09723826 -0.045918066 0.045918066 0.04861913
0.02971169 -0.043217003 -0.075629756 -0.08643401 0.067526564 -0.024309564 -0.021608502 0.013505314
-0.07022763 0.062124442 0.021608502 0.064825505 -0.12694995 -0.010804251 0.02971169 -0.09183613
-0.08643401 0.037814878 -0.013505314 -0.05942338 -0.016206376 -0.12694995 -0.0945372 0.078330815
-0.04861913 -0.1161457 0.056722317 0.056722317 -0.075629756 0.05942338 -0.075629756 0.05942338
0.018907439 0.05942338 0.04051594 0.016206376 0.024309564 -0.05942338 -0.021608502 -0.08103188
0.0 0.027010627 0.027010627 0.035113815 -0.078330815 0.008103188 0.0729287 -0.010804251
0.08103188 0.035113815 -0.09993932 -0.064825505 0.010804251 0.021608502 -0.064825505 -0.07022763
-0.075629756 -0.027010627 0.0027010627 -0.056722317 -0.10804251 -0.17827013 0.13505313 -0.05942338
0.045918066 -0.010804251 -0.0945372 -0.037814878 0.08643401 0.032412753 -0.0054021254 0.045918066
0.035113815 -0.11884676 0.08373295 -0.008103188 0.054021254 -0.045918066 -0.08373295 -0.032412753
0.008103188 -0.0027010627 0.08103188 -0.037814878 0.021608502 0.018907439 0.064825505 -0.09183613
-0.064825505 0.13505313 -0.0945372 -0.04861913 -0.089135066 0.043217003 -0.064825505 -0.09183613
0.032412753 0.013505314 -0.05942338 0.02971169 -0.04051594 0.018907439 -0.0054021254 -0.15396057
0.045918066 -0.021608502 0.062124442 -0.032412753 -0.1890744 -0.14855845 -0.0729287 0.008103188
0.032412753 -0.018907439 -0.056722317 0.078330815 -0.05942338 -0.037814878 -0.013505314 0.04861913
0.04051594 -0.016206376 0.064825505 -0.027010627 -0.0027010627 -0.08373295 0.05132019 -0.078330815
0.013505314 -0.0027010627 0.09183613 -0.062124442 -0.08103188 0.0027010627 0.027010627 0.035113815
00000000: cb13 15fe 2205 e000 02d2 d9e8 c319 2614
00000010: 01f0 0527 ebd8 f6e1 e1e0 e1f4 1de1 010e
00000020: fa15 fa04 13e2 1613 1dff 13e6 b1f4 0514
00000030: fc22 e0ea e8ff 1c03 ff27 fae7 f613 f5e4
00000040: e5d0 f9e1 0c19 e0f2 f219 e5ea 03dc f3f0
00000050: f9e1 fe1a 1400 0fe8 18e0 0ed5 0a0a 0d02
00000060: 14fc 1107 102f e9f8 d4ff f2e1 18ff 13fe
00000070: 011f 05f6 dcef 1112 0bf0 e4e0 19f7 f805
00000080: e617 0818 d1fc 0bde e00e fbea fad1 dd1d
00000090: eed5 1515 e416 e416 0716 0f06 09ea f8e2
000000a0: 000a 0a0d e303 1bfc 1e0d dbe8 0408 e8e6
000000b0: e4f6 01eb d8be 32ea 11fc ddf2 200c fe11
000000c0: 0dd4 1ffd 14ef e1f4 03ff 1ef2 0807 18de
000000d0: e832 ddee df10 e8de 0c05 ea0b f107 fec7
000000e0: 11f8 17f4 bac9 e503 0cf9 eb1d eaf2 fb12
000000f0: 0ffa 18f6 ffe1 13e3 05ff 22e9 e201 0a0d

model/tf.linalg.matmul/MatMul i1 [120, 3136] scale=0.002561314 zero_point=0
-0.03841971 -0.040981025 -0.010245256 0.023051826 0.017929198 0.030735768 0.017929198 0.0
-0.01280657 -0.005122628 -0.05122628 -0.002561314 -0.05122628 -0.05634891 0.007683942 0.002561314
0.04354234 0.04354234 0.048664965 0.02561314 0.002561314 0.02561314 0.08708468 0.040981025
0.06915548 0.010245256 -0.023051826 -0.017929198 0.015367884 0.007683942 0.07940073 0.030735768
0.028174454 -0.028174454 -0.03841971 0.010245256 0.035858396 -0.035858396 -0.07427811 -0.002561314
0.048664965 0.028174454 0.030735768 -0.046103653 -0.03841971 0.002561314 0.048664965 0.048664965
0.053787597 0.06659417 0.007683942 0.010245256 -0.015367884 -0.005122628 -0.017929198 -0.010245256
-0.002561314 -0.015367884 0.06403285 0.033297084 -0.020490512 -0.010245256 0.06659417 0.092207305
0.05891022 -0.028174454 0.010245256 0.02561314 -0.035858396 0.007683942 -0.010245256 -0.010245256
0.048664965 -0.07940073 -0.053787597 -0.02561314 0.10245256 0.02561314 0.020490512 0.015367884
0.053787597 0.007683942 0.017929198 0.017929198 0.028174454 0.040981025 0.007683942 0.017929198
0.017929198 -0.007683942 0.06403285 0.028174454 0.020490512 -0.015367884 0.005122628 0.084523365
0.11525913 0.033297084 0.007683942 0.040981025 0.002561314 -0.028174454 0.01280657 -0.06659417
-0.035858396 -0.048664965 -0.005122628 0.02561314 0.030735768 0.09476862 0.03841971 0.015367884
0.030735768 0.08964599 0.07940073 0.023051826 -0.033297084 0.007683942 -0.017929198 0.03841971
-0.06915548 -0.12550439 -0.05634891 0.028174454 0.06403285 0.015367884 0.007683942 -0.002561314
-0.020490512 -0.07171679 0.01280657 0.06659417 0.01280657 0.048664965 -0.033297084 0.01280657
0.035858396 0.06659417 0.02561314 -0.01280657 0.017929198 -0.002561314 0.017929198 0.0
-0.005122628 -0.023051826 0.06403285 0.12550439 0.05634891 0.028174454 0.028174454 0.020490512
0.01280657 0.028174454 0.01280657 -0.017929198 -0.07427811 -0.05891022 -0.06915548 -0.053787597
0.028174454 0.017929198 -0.033297084 -0.07427811 -0.020490512 -0.01280657 -0.01280657 0.005122628
0.046103653 0.015367884 0.035858396 0.007683942 -0.01280657 0.017929198 0.05634891 -0.02561314
-0.14855622 -0.08708468 0.05634891 0.07940073 0.010245256 0.010245256 0.002561314 0.007683942
0.002561314 -0.010245256 0.023051826 0.007683942 0.005122628 0.010245256 -0.002561314 0.0
-0.028174454 -0.01280657 -0.03841971 0.01280657 0.05891022 0.03841971 0.040981025 0.017929198
0.040981025 0.05634891 0.028174454 0.023051826 0.023051826 0.033297084 0.04354234 0.023051826
0.017929198 0.033297084 0.030735768 0.015367884 0.010245256 0.030735768 0.010245256 0.02561314
0.010245256 0.005122628 0.033297084 0.030735768 -0.017929198 -0.010245256 0.01280657 0.04354234
0.01280657 0.007683942 0.02561314 0.002561314 0.002561314 0.028174454 0.0 0.020490512
0.007683942 0.023051826 0.05122628 0.020490512 0.030735768 0.040981025 0.020490512 0.0
0.002561314 0.02561314 0.002561314 -0.01280657 -0.017929198 0.015367884 0.048664965 0.02561314
0.017929198 0.017929198 0.05122628 0.033297084 0.017929198 -0.01280657 0.007683942 0.020490512
00000000: f1f0 fc09 070c 0700 fbfe ecff ecea 0301
00000010: 1111 130a 010a 2210 1b04 f7f9 0603 1f0c
00000020: 0bf5 f104 0ef2 e3ff 130b 0cee f101 1313
00000030: 151a 0304 fafe f9fc fffa 190d f8fc 1a24
00000040: 17f5 040a f203 fcfc 13e1 ebf6 280a 0806
00000050: 1503 0707 0b10 0307 07fd 190b 08fa 0221
00000060: 2d0d 0310 01f5 05e6 f2ed fe0a 0c25 0f06
00000070: 0c23 1f09 f303 f90f e5cf ea0b 1906 03ff
00000080: f8e4 051a 0513 f305 0e1a 0afb 07ff 0700
00000090: fef7 1931 160b 0b08 050b 05f9 e3e9 e5eb
000000a0: 0b07 f3e3 f8fb fb02 1206 0e03 fb07 16f6
000000b0: c6de 161f 0404 0103 01fc 0903 0204 ff00
000000c0: f5fb f105 170f 1007 1016 0b09 090d 1109
000000d0: 070d 0c06 040c 040a 0402 0d0c f9fc 0511
000000e0: 0503 0a01 010b 0008 0309 1408 0c10 0800
000000f0: 010a 01fb f906 130a 0707 140d 07fb 0308

model/tf.nn.convolution_1/convolution i1 [16, 4, 4, 6]
-17 16 36 46 105 19 -11 0
42 16 125 73 22 -8 43 -26
81 10 -19 -7 26 39 38 -19
-15 -35 17 -35 127 51 -18 28
26 -30 60 -11 -31 -16 10 -52
-1 -5 16 0 -8 -21 9 -36
60 -31 -7 -23 86 21 51 -18
30 -27 48 19 42 -9 37 -23
18 11 34 -6 -36 -23 -33 -19
81 0 55 5 23 16 62 34
38 14 62 24 54 -20 1 53
11 56 41 -36 -21 56 -14 39
-36 -23 -69 -28 -109 -1 -26 -35
-96 49 -127 -42 -7 29 -90 9
-106 -55 -44 -44 -96 43 -109 4
-105 1 -73 38 -61 -3 -20 34
-107 43 -54 -49 -64 45 -118 20
-115 21 -55 -9 -111 46 -57 -43
-97 18 -110 -25 -63 5 -107 -49
-39 -29 -60 -45 -124 48 -49 33
-11 31 -118 25 -101 -15 -45 -20
-75 -17 -50 -14 -24 -61 -39 26
-86 -7 -102 -8 -102 -23 -104 -28
-32 -61 -14 -38 -88 -14 -41 -3
50 -18 30 -80 65 -42 40 27
25 -30 20 2 -2 -10 -32 40
28 18 1 -3 -29 83 -42 27
63 31 36 -79 127 6 6 -9
-28 8 -5 -66 35 -8 25 28
52 -22 9 31 -25 47 25 -5
44 4 71 -98 91 33 58 22
-45 -57 -14 -71 -18 29 -11 -2
00000000: ef10 242e 6913 f500 2a10 7d49 16f8 2be6
00000010: 510a edf9 1a27 26ed f1dd 11dd 7f33 ee1c
00000020: 1ae2 3cf5 e1f0 0acc fffb 1000 f8eb 09dc
00000030: 3ce1 f9e9 5615 33ee 1ee5 3013 2af7 25e9
00000040: 120b 22fa dce9 dfed 5100 3705 1710 3e22
00000050: 260e 3e18 36ec 0135 0b38 29dc eb38 f227
00000060: dce9 bbe4 93ff e6dd a031 81d6 f91d a609
00000070: 96c9 d4d4 a02b 9304 9701 b726 c3fd ec22
00000080: 952b cacf c02d 8a14 8d15 c9f7 912e c7d5
00000090: 9f12 92e7 c105 95cf d9e3 c4d3 8430 cf21
000000a0: f51f 8a19 9bf1 d3ec b5ef cef2 e8c3 d91a
000000b0: aaf9 9af8 9ae9 98e4 e0c3 f2da a8f2 d7fd
000000c0: 32ee 1eb0 41d6 281b 19e2 1402 fef6 e028
000000d0: 1c12 01fd e353 d61b 3f1f 24b1 7f06 06f7
000000e0: e408 fbbe 23f8 191c 34ea 091f e72f 19fb
000000f0: 2c04 479e 5b21 3a16 d3c7 f2b9 ee1d f5fe

model/tf.nn.convolution/convolution i1 [6, 5, 5, 3]
-30 -77 -50 -50 -98 -87 10 -82
-96 -10 -23 -85 -104 -25 -21 -9
19 25 36 -12 -65 -5 53 46
-41 30 -74 3 -95 -79 -22 56
71 -20 22 -52 -40 37 -11 32
3 56 -44 -42 27 113 80 127
6 82 71 -27 -43 -6 -45 30
-59 42 -27 81 60 -4 35 85
85 4 21 69 81 -40 -8 4
-5 -60 74 -72 53 -127 -62 -46
46 113 -99 -21 3 -31 -91 0
-45 -63 -13 -60 96 -126 -18 -108
-20 87 83 -69 77 21 -54 -113
-27 -99 -101 5 -30 -58 -52 44
52 -36 -3 56 15 -74 81 -89
-4 -24 -11 -102 26 -47 -71 38
-3 112 -23 -93 106 -123 74 39
-122 35 54 9 -75 -49 -111 97
-69 5 0 -49 -94 33 19 -24
-65 17 63 -77 49 -13 -86 -74
46 -117 9 41 -19 96 65 -63
19 86 -44 -61 -75 36 -81 6
-109 54 17 -33 106 68 97 -56
24 -31 80 60 60 11 -35 10
23 11 -114 104 82 66 42 28
-72 35 46 32 -37 -14 -117 -93
-22 -103 75 8 5 -33 100 -51
83 -53 -51 -65 -2 -58 10 37
-127 83 74 111 75 99 121 82
93 106 82 66 118 90 41 74
95 58 88 68 80 104 57 47
100 55 58 76 56 43 85 111
00000000: e2b3 cece 9ea9 0aae a0f6 e9ab 98e7 ebf7
00000010: 1319 24f4 bffb 352e d71e b603 a1b1 ea38
00000020: 47ec 16cc d825 f520 0338 d4d6 1b71 507f
00000030: 0652 47e5 d5fa d31e c52a e551 3cfc 2355
00000040: 5504 1545 51d8 f804 fbc4 4ab8 3581 c2d2
00000050: 2e71 9deb 03e1 a500 d3c1 f3c4 6082 ee94
00000060: ec57 53bb 4d15 ca8f e59d 9b05 e2c6 cc2c
00000070: 34dc fd38 0fb6 51a7 fce8 f59a 1ad1 b926
00000080: fd70 e9a3 6a85 4a27 8623 3609 b5cf 9161
00000090: bb05 00cf a221 13e8 bf11 3fb3 31f3 aab6
000000a0: 2e8b 0929 ed60 41c1 1356 d4c3 b524 af06
000000b0: 9336 11df 6a44 61c8 18e1 503c 3c0b dd0a
000000c0: 170b 8e68 5242 2a1c b823 2e20 dbf2 8ba3
000000d0: ea99 4b08 05df 64cd 53cb cdbf fec6 0a25
000000e0: 8153 4a6f 4b63 7952 5d6a 5242 765a 294a
000000f0: 5f3a 5844 5068 392f 6437 3a4c 382b 556f
